predict_synoptic_map/LSTM/best_model.pkl (torch, 93483 bytes, 13 tensors)

lstm.weight_ih_l0 f4 [120, 30]
000000 10 83 d7 be d5 f8 2a bf f9 40 c4 be 50 63 d6 be
       -0.4209218 -0.6678594 -0.3833082 -0.41872644
000010 f7 fd e2 be fe 08 d4 be c2 05 a0 be 74 7c 30 bf
       -0.44334385 -0.4141311 -0.31254393 -0.689399
000020 98 22 0f bf c7 c4 ad be b8 7b 5a be 18 36 3c be
       -0.5591216 -0.33939192 -0.21336257 -0.1838001
000030 c8 d2 30 be 17 58 ce be 51 fe 53 be 83 b8 33 be
       -0.17267907 -0.40301582 -0.20702483 -0.17550854
000040 75 38 a8 bd bf 37 93 bd 58 a0 07 3e 50 c8 74 3e
       -0.08213893 -0.07188367 0.1324476 0.23904538
000050 b0 40 41 3e 95 cd 91 3e 0d c1 7c 3e 96 3f 0f 3e
       0.18872333 0.2847716 0.24683018 0.139891
000060 a8 55 14 3e 9b 34 30 3e ce bb 42 3e ff b7 9b 3e
       0.144858 0.17207567 0.19016954 0.30413815
000070 00 23 bb 3e a4 b7 c9 3d 5c a8 65 bd dd 94 58 3e
       0.3655014 0.0984948 -0.056068763 0.21150537
000080 09 92 8d 3e b1 a7 28 3e de 32 e9 bd 52 61 bc bd
       0.27650478 0.16470219 -0.11386655 -0.0919825
000090 e0 4d aa be 52 8b 55 be ab 2a f6 be b8 0d c3 be
       -0.3326254 -0.20853928 -0.48079428 -0.38096404
0000a0 d1 c2 0d bf cc 5e 29 bf 3c f2 1d bf 2b 52 be be
       -0.5537539 -0.66160274 -0.61697745 -0.37172064
0000b0 e3 26 1b bf 6b 35 12 bf 22 aa 11 bf 56 6f da bd
       -0.6060621 -0.5711276 -0.5690023 -0.10665767
0000c0 64 3c 98 be f1 e3 72 3e 30 52 88 3d 88 19 4f 3e
       -0.29733574 0.23719765 0.06656301 0.20224583
0000d0 5f 70 2b 3e 8e 2a b6 3d 46 ab c8 bd 0b 07 d7 bc
       0.16742085 0.088948354 -0.09798293 -0.026248476
0000e0 f1 63 7b 3e ad 64 e2 3e e8 98 1d 3f 57 15 23 3f
       0.24549843 0.44217435 0.6156144 0.63704437
0000f0 92 cc 08 3d 6d 55 1d 3e 4c 52 2f be 3b 93 95 bd
       0.03339822 0.15364619 -0.17121238 -0.073034726
000100 e9 f7 86 3d 19 cd 1b be 28 16 64 3d 45 82 1b 3b
       0.06590254 -0.15214957 0.055685192 0.002372877
000110 b9 5b b7 bd ba 45 e3 bd 19 bb 40 3e a7 2a 99 3d
       -0.089530416 -0.11097284 0.18821372 0.074788384
000120 4d 3d 66 3e 0e 2b 8d bb 3a bb 49 3e 66 c2 93 3d
       0.22484322 -0.004308111 0.19700328 0.07214813
000130 be 95 d3 3c 97 52 9f 3d 34 0b 6f 3e bc 4d 96 3e
       0.025828239 0.07779425 0.23344117 0.29356182
000140 56 18 4c 3e d8 59 8b 3d 71 0c 25 3e 8c 94 cc 3e
       0.19931158 0.06804246 0.16118027 0.39957082
000150 54 d5 44 3e 92 b1 48 3e 5b cc b8 3e 60 71 ba 3e
       0.19222003 0.19598988 0.3609341 0.36414623
000160 74 de 0c 3f c1 c0 19 3f 44 17 2c be 47 85 06 be
       0.55026937 0.60059744 -0.1680575 -0.13136779
000170 48 62 fd 3d 6d e2 eb 3d 7a 01 0f be da 74 af bd
       0.12372261 0.11517797 -0.13965407 -0.085672095
000180 f1 56 5c 3d 6c 18 80 be 2d 22 1e bd 7c bb d2 bd
       0.05379385 -0.25018632 -0.03860681 -0.10289666
000190 ce ca df bb f7 98 d2 3c 13 8c 3b 3d e1 50 54 3c
       -0.006829596 0.025707705 0.045787882 0.012958736
0001a0 83 e0 81 bc db 24 86 be 25 c0 aa 3c 6a 74 b0 3b
       -0.015854126 -0.26199993 0.020843575 0.0053849714
0001b0 a5 3f 25 3d 14 65 53 bd 14 2b bc bd 9e 78 65 be
       0.0403439 -0.051610067 -0.09187904 -0.22409293
0001c0 34 c5 06 be 72 b1 a4 bd f7 1e bc bc 74 85 ff 3d
       -0.13161165 -0.080416575 -0.022963984 0.12476626
0001d0 10 d2 db 3d 75 77 c2 3c 66 fe bb 3c 14 43 19 3e
       0.107334256 0.023738602 0.022948455 0.14966995
0001e0 3b 7e 50 3d 2b a2 96 bb c9 7a 41 bd fa 98 49 3d
       0.050901633 -0.0045969686 -0.047236238 0.049218155
0001f0 b5 41 51 3e f9 01 00 be 36 35 06 3e f7 23 25 3d
       0.20435221 -0.12500753 0.13106236 0.040317502
000200 bc d8 e1 3d 47 06 d9 bd a7 cb 3c bd 48 0f c6 bd
       0.11027667 -0.105969004 -0.046092656 -0.096708834
000210 fa ca 73 3d b8 fa 81 bc 78 3c c9 3c d2 32 3e 3e
       0.059519745 -0.015866622 0.024564967 0.18574074
000220 a5 7d cf 3b d4 6f 98 bc d8 87 5f bd 82 04 c0 3d
       0.0063321167 -0.018608011 -0.05457291 0.0937586
000230 97 f8 19 3e 9d 96 c1 bc dd 24 e4 bc 0f 88 6c bd
       0.15036236 -0.023631388 -0.027849609 -0.057746943
000240 bb 41 87 bd b6 be a5 3d 1d 1b 60 3d 1f cf c9 bd
       -0.06604334 0.08093016 0.054713357 -0.09853958
000250 84 5c cc 3d 71 42 a1 3d b7 2e eb bd 7c 6c 41 3c
       0.099785835 0.07874001 -0.114835195 0.01180565
000260 99 26 d8 3d c8 f4 1c 3e b5 78 7a 3c 9c 2f 38 bd
       0.10554237 0.15327752 0.015287568 -0.04496728
000270 95 3b 73 3e 7e 4d 49 3c b4 97 f2 bc 9d d6 94 3d
       0.23753197 0.012286542 -0.029613353 0.07267497
000280 4d 52 54 3e 62 df 84 3c db 9b 50 3e 0f f3 a6 bd
       0.2073452 0.016219798 0.20371954 -0.081518285
000290 8b 77 75 3e f4 c7 94 bd d5 29 56 3e 91 ce 36 3e
       0.23971383 -0.072647005 0.20914395 0.17852236
0002a0 51 1b 25 bd 2e 8f 25 bd ca c7 3a 3d 29 29 fd 3d
       -0.040309254 -0.04041975 0.04560069 0.12361366
0002b0 4c 69 68 3d ee 02 e6 3c 22 ef 87 3d 35 0f c8 3d
       0.056741044 0.028077569 0.06637408 0.097685255
0002c0 59 f2 1f 3e 26 45 d5 3d eb 33 03 bc 7d 57 f3 3d
       0.15619792 0.1041358 -0.008007984 0.118819214
0002d0 61 70 b2 be 70 42 1b bf ba 06 af be 94 28 f4 be
       -0.34851363 -0.6064825 -0.3418482 -0.4768721
0002e0 c4 37 a2 be 8b f3 dd be 8f 7a 93 be 7d 1a ae be
       -0.3168317 -0.4334987 -0.28804442 -0.34004584
0002f0 e4 85 ca be 08 2a 14 be 32 1b 9a be 8f 5d 80 be
       -0.39555275 -0.14469159 -0.30098873 -0.2507138
000300 31 74 29 be b3 59 91 be 85 63 5f be 23 ca 05 be
       -0.1654823 -0.28388748 -0.21815307 -0.1306539
000310 bb 9f 5a be b1 10 20 3d 55 e3 98 3d 53 df b9 bd
       -0.21349995 0.03907842 0.07465235 -0.09075799
000320 81 29 f5 bd 5b b7 2c 3e ec 73 09 bd cb 6e 6a 3d
       -0.11970807 0.1686682 -0.033557817 0.057234567
000330 ab 69 4d 3e 40 32 3c 3e df 41 61 3e 2e 64 76 3e
       0.2005984 0.18378544 0.21997784 0.24061653
000340 4a 19 85 3e 6b 88 82 3e 10 35 8b bc be 23 2b be
       0.25995857 0.25494704 -0.016993076 -0.16712853
000350 19 f8 05 be ea 89 7f be 86 59 92 be 29 7a 9e bd
       -0.13082923 -0.24954954 -0.28583926 -0.07738144
000360 52 06 bd bd 17 34 c2 bd 92 31 0a bd 30 4c fb 3d
       -0.09229721 -0.094825916 -0.03373868 0.12270391
000370 0c c0 33 be a3 2c d7 3b 00 72 4d be 70 77 a2 3d
       -0.17553729 0.0065666004 -0.20063019 0.07932937
000380 f3 59 4d be 41 49 d2 3d 1d 75 8e 3d b5 a5 37 be
       -0.20053844 0.10267878 0.06955931 -0.17934306
000390 7c 3e 67 bd 38 18 8b 3d 1a fe 2e be 58 ef 16 be
       -0.056456074 0.06791729 -0.1708912 -0.1473974
0003a0 aa 65 e8 ba 32 eb dc 3d 5f ba c3 bd a9 06 80 bc
       -0.0017730494 0.107870474 -0.09557032 -0.015628176
0003b0 92 5c 04 be 1b c0 1d 3e e3 00 59 3e d9 10 01 3e
       -0.12925938 0.15405314 0.21191745 0.12604083
0003c0 09 db a1 be ef 6c 9c be b7 7f 94 be 5b 0d 94 be
       -0.31612423 -0.3055186 -0.2900369 -0.2891644
0003d0 39 a4 c0 bd 5a ac 14 be b2 4c bc be 17 4e 8c be
       -0.09406323 -0.14518872 -0.36777264 -0.27403328
0003e0 d2 f4 2b ba fc a2 3f be 57 00 7b be 15 65 54 be
       -0.00065596134 -0.18714517 -0.24511848 -0.20741685
0003f0 58 cd d0 bc a5 9c 5c 3d 84 39 52 be ef 27 58 be
       -0.02548854 0.053860325 -0.20529753 -0.21108983

lstm.weight_hh_l0 f4 [120, 30]
000000 70 75 82 be c5 40 e9 be 4a 96 4f be 9f 2d b9 bd
       -0.25480223 -0.45557228 -0.20272174 -0.09041905
000010 b0 4b 75 be e8 da 71 be 79 40 24 3f 2e 5c 13 3e
       -0.23954654 -0.23618662 0.6416088 0.14390633
000020 b0 83 2e be f3 2a aa 3e a8 27 8a 3e 22 2f 8d be
       -0.17042422 0.33235893 0.2698338 -0.27575022
000030 96 a7 9b 3e 9e 9f 76 3e 00 0a 3f 3d 2e e1 a6 bd
       0.30401295 0.24084327 0.046640396 -0.08148418
000040 ed c0 22 3e 9c 67 66 3e f1 0f 42 bd 10 44 ee 3d
       0.15893908 0.22500461 -0.047378484 0.11634076
000050 26 fa d9 bd 91 7f 57 3e b7 c0 0e 3e 1d 38 a2 bd
       -0.10643415 0.21044756 0.13940702 -0.07920859
000060 a5 2e 21 3d 88 f7 16 3e f1 37 93 3d 7c bd bd 3e
       0.039351124 0.14742863 0.07188404 0.37058628
000070 52 35 8e be 8c ef 86 3e a0 37 d0 be 8e cc ad be
       -0.27775055 0.26354635 -0.40667439 -0.33945125
000080 54 2d 3a be dc 57 ab bd 8a b4 8f 3d cf 57 2e be
       -0.18181354 -0.08366367 0.07016857 -0.17025684
000090 a6 3b ea be e6 a9 91 be 78 4b 5b be ac 22 d8 be
       -0.45748633 -0.28449935 -0.21415508 -0.42213953
0000a0 e0 7d 83 3e 13 75 34 be c8 f1 48 3d d8 7a af 3e
       0.25681973 -0.17622785 0.049058706 0.3427341
0000b0 eb fd 0a 3e 66 3b d2 bd ab 4f f8 3d 8a e8 ab 3d
       0.13573425 -0.102652356 0.121245705 0.08393963
0000c0 37 d7 8c 3e 02 b2 42 be 65 b3 00 bd ba 03 cb bd
       0.27507946 -0.19013217 -0.031421084 -0.0991282
0000d0 c3 f8 01 be 32 82 c3 3c cc 11 61 be 56 e0 84 be
       -0.12692551 0.023865793 -0.21979445 -0.25952405
0000e0 53 8c 64 be af 51 f1 be f1 e7 ce bd 83 8d 9a 3e
       -0.22319154 -0.47132632 -0.10102833 0.3018609
0000f0 b3 a1 30 3e 6c 85 f2 be 21 d0 80 3d 4c b8 28 bd
       0.17249183 -0.47367418 0.062896974 -0.041191384
000100 b1 62 37 3e f8 05 f7 3b 8d 9f f0 3e 24 62 d9 3d
       0.17908742 0.0075385533 0.46996728 0.10614422
000110 5b 4e 56 be 13 29 2c 3e be 61 96 be 10 4f 02 bd
       -0.20928328 0.16812544 -0.29371446 -0.03181368
000120 5e bc 41 3e b1 3b bb bd fe d6 3e bd 6a ce 6a be
       0.18919513 -0.091422446 -0.04659175 -0.22930303
000130 52 2d 61 3e b8 8e 6e 3d 13 d5 3f 3e 01 2b 1c 3d
       0.21989945 0.058241576 0.18733625 0.03812695
000140 62 b5 39 3e 5e a5 81 3e bb 61 e9 3e 7a f0 02 3d
       0.18135598 0.25321478 0.45582375 0.031967618
000150 9b 6f c6 bd 4b c0 b4 3d d3 16 29 be 05 5a fc 3d
       -0.09689256 0.088257395 -0.16512613 0.12321857
000160 b2 0f 84 be c6 e7 8a 3e 20 4e 1b 3e c4 3c 34 bf
       -0.25793225 0.27129954 0.15166521 -0.7040522
000170 c9 e9 7a be c5 c8 35 be 51 4a 6d bd 2b 65 84 be
       -0.24503244 -0.17752369 -0.0579322 -0.25858435
000180 9b 5b 4b 3e 0d fc 4e bd 7e 61 50 be 1a 2d f1 3d
       0.19859163 -0.050533343 -0.2034969 0.117761806
000190 26 47 50 3e 3f b5 6b 3e 2c c7 bb 3e 61 09 0b be
       0.20339641 0.23018359 0.36675394 -0.13577797
0001a0 a0 74 55 3e a7 31 c3 bd 8f 51 a6 3e 5d 60 c6 3e
       0.2084527 -0.09530955 0.324841 0.38745394
0001b0 4c 49 42 3c 3b 56 5d 3e 7b 15 06 3e 1f 1e 6b 3d
       0.011858296 0.21614926 0.13094132 0.057401773
0001c0 6b ba 7c bb b0 4b 43 3e 58 60 1c 3e 56 96 f2 3c
       -0.0038563262 0.19071841 0.15271127 0.029612701
0001d0 98 56 33 be 1a 5e 36 be d1 80 11 be f5 0f 0b 3f
       -0.17513502 -0.17809334 -0.14209296 0.54321223
0001e0 21 54 1d 3e 5d df 83 be 8b 53 99 bd 90 3e bc be
       0.15364124 -0.2575635 -0.07486638 -0.3676648
0001f0 a6 8f b0 3b 6d 09 19 be 35 ff 99 be e8 08 a1 be
       0.005388218 -0.14945002 -0.3007752 -0.31452107
000200 16 5e 35 be c2 a1 dd bd 79 52 39 3c 92 58 ae 3e
       -0.17711672 -0.108218685 0.011311167 0.3405195
000210 32 e2 e9 bd 4d 49 f0 bd 80 77 cd bc 76 75 1a be
       -0.114200965 -0.11732731 -0.025081396 -0.1508387
000220 4c 62 24 3c 46 c8 90 3e a5 e0 6f 3c 26 92 d2 bd
       0.010033201 0.28277797 0.014640962 -0.10281782
000230 58 1f 44 be f8 4b 01 b9 97 aa c7 bd 21 36 f0 3d
       -0.19152582 -0.00012330699 -0.09749334 0.11729074
000240 37 7e 83 bd 56 4f 0c 3f b9 24 ba be 46 e2 84 be
       -0.06420558 0.5480856 -0.36356142 -0.25953883
000250 7a d4 0a be 3e eb 17 be 94 49 4a 3e f4 a9 ae be
       -0.13557616 -0.14835832 0.1975463 -0.3411404
000260 f8 e2 01 be 12 63 0a be 6b 82 c8 3c f9 11 18 be
       -0.12684238 -0.13514355 0.02447625 -0.14850606
000270 54 c5 e3 3e db a7 a5 bc 2e a0 fc bd 3f db 84 3e
       0.44486487 -0.020221641 -0.12335239 0.25948521
000280 6d d3 b1 bc e9 b3 6e 3e a1 35 c2 3e c8 fd 01 3e
       -0.021707261 0.23310818 0.3793154 0.12694466
000290 f9 6c 72 3e 59 5c e8 3d 2f 3a 42 3d cd 7a 81 3e
       0.23674382 0.11345739 0.04741877 0.25289002
0002a0 57 99 72 3e 50 64 d2 3e 45 76 bc 3d 6e 68 75 bd
       0.23691307 0.41092157 0.092022456 -0.059914045
0002b0 c7 94 bd 3e 7e d7 95 bd cc c1 87 3e 5e 0f 36 bd
       0.3702757 -0.073164925 0.26515043 -0.04444825
0002c0 1b 9b a1 be df e9 9e 3c fd bf 31 3d a6 aa b2 3e
       -0.3156365 0.019398628 0.043395985 0.3489582
0002d0 ad 6e 81 3e 26 a2 01 be a4 f5 7c 3e 90 23 84 3e
       0.2527975 -0.12659511 0.2470308 0.25808382
0002e0 da 1e 9e 3e 06 d6 26 3e e3 b3 02 bd ae 08 c6 3e
       0.30882913 0.16292581 -0.031909835 0.38678497
0002f0 46 22 8c 3d 70 76 24 3d 04 be b1 bd 33 b3 53 be
       0.06842475 0.040152013 -0.08678821 -0.20673828
000300 80 fa 8e 3e 75 d9 b6 3d 82 89 da 3c b4 e2 2a be
       0.2792549 0.089281954 0.026676897 -0.16688043
000310 de d4 dc 3e 86 9e 49 3d 0d 65 c3 3d 2f f6 6a 3e
       0.43131155 0.049223445 0.09540758 0.22945474
000320 d3 2a fe 3e 10 e7 2a 3f 22 89 07 3e 32 c3 16 be
       0.49642047 0.66758823 0.13235906 -0.14722899
000330 64 f5 53 be da 14 a1 3d a2 72 01 bf 4c 1c 33 3e
       -0.20699078 0.07865305 -0.5056554 0.17491263
000340 5d 7a 02 bf d2 7f 1d 3f 28 44 86 3e d0 cf 4a be
       -0.5096796 0.61523163 0.26223874 -0.19805837
000350 3d f3 76 be d1 5b 82 be 19 ee a1 be 41 d4 0c be
       -0.24116226 -0.25460675 -0.31626967 -0.13752843
000360 bc 67 d7 3e 02 6b e4 3c a5 96 bc be 9f 4d b3 3e
       0.4207133 0.027883057 -0.36833683 0.35020158
000370 48 5e 25 3c 09 c4 d8 3d 73 d5 dd bc c6 91 f9 bd
       0.010093279 0.10584266 -0.02707932 -0.12186007
000380 77 bb 10 3e 68 98 c3 bd 1b 04 97 3d b6 66 41 3e
       0.14134012 -0.095505536 0.0737383 0.18886837
000390 c4 1e 0f bc fb 2c 2c 3e 2c 18 53 bd 48 69 8f bd
       -0.008735362 0.16814034 -0.051536724 -0.07002503
0003a0 6a 9a 15 bd 42 36 4e 3e 91 fa 52 bd 4a ff 68 be
       -0.036524214 0.20137885 -0.05150849 -0.22753635
0003b0 10 83 b8 bd 80 8f 0e 3b 03 0c 56 bd b9 e2 22 3e
       -0.09009373 0.0021753013 -0.05225755 0.159068
0003c0 79 a9 08 bd 86 6a 86 3e 75 a3 4d be b7 aa ff bc
       -0.033364747 0.26253146 -0.20081885 -0.031209333
0003d0 70 82 4e 3e 5a 31 5e be f6 68 1b 3d ad cb 99 be
       0.20166945 -0.21698514 0.037941895 -0.30038205
0003e0 c0 25 31 3e ac 3d 71 3e 60 a7 8b 39 77 15 97 3e
       0.17299557 0.23558682 0.0002663685 0.29508564
0003f0 89 ac 67 bd 1e e4 9c 3d ec 02 be 3d e7 8f 74 bd
       -0.056561027 0.076606974 0.09277901 -0.05970755

lstm.bias_ih_l0 f4 [120]
000000 1c 1d ed 3d 36 36 90 3e 7c eb 90 3e a1 5a e6 3d
       0.11577818 0.2816636 0.2830466 0.11247755
000010 1e 8a 7f bc 4e 93 2f 3c fb 11 84 3c be 56 35 3e
       -0.015596895 0.0107162725 0.016121855 0.17708871
000020 07 24 ac bd 65 b6 c5 bd 9e 7c 1d 3f 66 01 49 3c
       -0.08405309 -0.096539296 0.61518276 0.0122684
000030 12 27 6c 3d bd 25 5e be 49 02 bb 3d 48 3e 58 3a
       0.057654448 -0.21694084 0.09131295 0.0008249027
000040 4c 49 31 3c f7 bd 87 be ba a5 85 3d 11 a1 50 3e
       0.010820698 -0.2651212 0.065257505 0.20373942
000050 8d 77 88 3e 25 7f 21 3e a8 c9 d0 3d a7 59 a4 be
       0.2665371 0.15771158 0.10194713 -0.3209965
000060 94 1d 8e 3e a1 6b b0 be bb f7 bb bc b4 91 56 bd
       0.2775694 -0.34457114 -0.022945276 -0.052385047
000070 04 95 5d be 55 a3 15 3e d8 2a 9b 3e 98 ac de bd
       -0.21638876 0.14613087 0.30306125 -0.108727634
000080 c2 6a 4d 3e 55 0c d6 3b 1a ef ca 3d 37 0f 86 bd
       0.20060256 0.006532232 0.09908886 -0.06545871
000090 cb e2 ef 3d de 5d b7 bd 99 1c 3f be 78 88 d4 bd
       0.11713179 -0.089534506 -0.18663253 -0.10377592
0000a0 09 e3 d7 3e 59 bf a0 3d a5 65 90 3e a2 5c 2d be
       0.42165402 0.07848997 0.2820255 -0.16929868
0000b0 93 25 d4 bc 1f 04 9b bd 60 55 87 be f6 fa 3e be
       -0.025896823 -0.075691454 -0.26432323 -0.18650422
0000c0 c9 47 92 3c 30 6c 7e bd 6e 0c b3 3d 46 70 fa 3d
       0.017856495 -0.062114894 0.08742605 0.12228446
0000d0 95 03 b2 3d 95 40 92 bd dc 43 5e bc c0 58 cf 3e
       0.086920895 -0.07141224 -0.013565984 0.40497398
0000e0 6a 06 d4 bd 37 3e 27 be 42 e9 29 be e3 1d a9 bc
       -0.10352786 -0.16332327 -0.16592887 -0.020644134
0000f0 55 6b ea bd 88 9a 98 bd 32 7e c0 bd 23 03 e3 3b
       -0.11446253 -0.074513495 -0.0939907 0.006927864
000100 71 4b 37 be db 89 2b be 27 c4 54 bd b4 6f 41 be
       -0.17899872 -0.16751806 -0.051944878 -0.18890268
000110 d3 57 1b 3c ca 1a d5 3c 4a dd 35 3e 0b 88 f4 3b
       0.009481388 0.02601375 0.17760196 0.0074625066
000120 92 e9 15 3e 04 23 24 3d f7 cc 83 3d 74 8b f8 bd
       0.14639881 0.040072456 0.06435578 -0.121359736
000130 c4 38 00 bd e5 10 5f 3c dc c6 28 3e ab b9 b2 bd
       -0.031304136 0.013614868 0.16482109 -0.087268196
000140 18 cd fc bd 67 ad ee bd e2 c9 a9 bd 26 d0 b6 3c
       -0.12343806 -0.116541676 -0.08290459 0.02231605
000150 82 f0 7d 3d fa dd 6f 3c 5b 96 ad 3d 2f 7a 92 3d
       0.061996944 0.014640326 0.08475944 0.07152211
000160 f9 52 54 3e 4c 32 b7 bd ec b9 ad 3d d0 4a 47 3e
       0.20734777 -0.0894514 0.084827274 0.19462132
000170 65 97 46 3e 07 00 de bd eb 5e 19 3e 56 a1 34 bd
       0.1939369 -0.10839849 0.14977615 -0.044099174
000180 bd 3c 37 bd 66 26 00 bd 27 44 09 3d 2e e8 16 3d
       -0.04473566 -0.03128662 0.03351226 0.036842518
000190 37 bd ad 3e 77 9f 16 3e 75 b7 b4 3e b3 28 6a be
       0.33933422 0.14709269 0.35296217 -0.22867088
0001a0 67 20 31 3e ff 07 20 be d7 3b ee bd d4 f4 62 3c
       0.17297517 -0.1562805 -0.11632507 0.013852317
0001b0 09 c6 83 bd c8 0d 50 3d 62 cb cb 3e 03 68 f5 3d
       -0.064342566 0.050794393 0.39803606 0.11982729
0001c0 ba f6 3c 3c 2e a8 3e be fa 2b 61 3e be fc af 3e
       0.011533434 -0.18618843 0.21989432 0.34372514
0001d0 68 fb 75 3c e7 49 1a be 55 96 ae 3d 11 20 6a 3e
       0.015013553 -0.15067254 0.08524767 0.22863795

lstm.bias_hh_l0 f4 [120]
000000 3f a9 1e 3e 2b 5d b3 3d b2 c3 ba 3e 4f 43 03 3e
       0.1549425 0.08758005 0.3647743 0.12818645
000010 1c 61 d0 bc 9b 40 64 bd ee fa 8c be 87 27 34 3d
       -0.02543693 -0.055725675 -0.27535194 0.04398301
000020 3a 1b 89 3c f1 8d 4c 3e 82 4f b3 3e a3 c0 39 3d
       0.016736615 0.19976021 0.35021597 0.04534973
000030 37 c1 89 3d 33 f3 54 be 5d 16 f3 3d ac 4b 8b bc
       0.06726306 -0.20795898 0.118695 -0.017003857
000040 cb 4f 19 bd 59 2e 68 be 82 12 60 be 0d 73 6c bd
       -0.037429612 -0.2267393 -0.2188206 -0.05772691
000050 1f 1e 23 3e 02 bb 2a bd 6b 9b 1a 3c a3 6a 6a ba
       0.15929459 -0.04168225 0.009436469 -0.0008942282
000060 4b 92 47 3e c6 1f c2 bd 2a b2 4c 3e a5 c4 81 be
       0.194894 -0.094787166 0.19989839 -0.2534534
000070 4a 96 91 3d c6 1b 90 3e 37 64 4d 3d 54 c1 bf 3d
       0.071087435 0.2814619 0.0501444 0.09363046
000080 e8 74 74 3e 56 f1 a9 3c 09 31 5c bd 50 7a 65 bc
       0.23872721 0.02074496 -0.0537577 -0.014006212
000090 c3 1d 21 3e fe f2 4a be 67 f7 58 be 12 a9 30 be
       0.1573401 -0.19819257 -0.21188127 -0.17251995
0000a0 51 a0 a4 3e e8 90 fd bd 22 b1 3f 3e 72 4f f0 bd
       0.32153562 -0.12381154 0.18719915 -0.11733903
0000b0 c6 60 a7 bd d9 13 3f be c7 67 a5 3c 2a 1b 0d be
       -0.08172755 -0.18659915 0.020191086 -0.13779894
0000c0 4b 9a 65 bc a2 d0 42 3d ab 91 e3 bc b2 fd 66 3b
       -0.014013837 0.04756225 -0.02777942 0.003524643
0000d0 49 7e a8 3d dc 85 03 bd b2 38 57 3d 64 b6 62 3e
       0.08227212 -0.03211008 0.052544303 0.22139889
0000e0 e5 f1 09 3e bf 8b b7 bc 4c d0 ff 3d 75 f0 27 3d
       0.13471182 -0.022405503 0.12490901 0.041000802
0000f0 33 36 b7 3d ef e0 08 be 51 a7 11 be ec e8 7b bd
       0.089458846 -0.13367055 -0.14223982 -0.06150143
000100 cb 44 5b bd b5 de cf 3d 07 4e 26 bc 1f f9 1b 3d
       -0.053532403 0.101499 -0.010150439 0.038079377
000110 6a 6a 63 bd 35 e7 11 be b9 7b 2d 3e cd ec 95 3d
       -0.055521406 -0.14248355 0.16941728 0.07320557
000120 82 f5 a7 bc b7 d6 63 be f6 77 1c bd f5 2b b3 3d
       -0.02050281 -0.22249876 -0.03820034 0.087486185
000130 48 df 9c be e5 13 48 bd 92 22 c8 bd 1d ae 95 bd
       -0.306391 -0.048847098 -0.09772219 -0.073086
000140 5f 66 2d 3e b3 4a 85 bd c7 95 20 be 98 0a 09 be
       0.16933583 -0.06508388 -0.15682136 -0.13382947
000150 77 5a 85 bd 6a 1d 14 be be c5 3b 3c 3a c1 0b be
       -0.065113954 -0.14464346 0.01146072 -0.13647929
000160 70 ea 41 bd 10 f7 67 bd 84 dc e9 3d 12 9b 55 3e
       -0.047342718 -0.0566321 0.11419013 0.20859936
000170 33 4f 0f 3e 8a 3f 61 3e f3 03 44 3e 8a 97 2f 3d
       0.13995056 0.21996894 0.19142132 0.04286913
000180 bf 26 1e 3d ea 5c fd 3d dc 0a 9b be e7 18 1e be
       0.03861117 0.123712376 -0.30281723 -0.15439187
000190 42 24 23 3f b1 fb 56 3e 3d 5c b8 3d 04 6d f3 3d
       0.637272 0.2099445 0.09001968 0.118860275
0001a0 29 ad 34 3e 92 b0 e7 bd e2 d2 2f bd a4 37 3a be
       0.1764418 -0.11312975 -0.042925723 -0.18185288
0001b0 d8 9c 8e bd ba c0 a7 bc 71 2b bf 3e 53 a9 b7 3d
       -0.06963509 -0.020477641 0.3733783 0.08967843
0001c0 49 6e 1d 3d af 33 fa bc 48 da 68 3e fb 70 23 3e
       0.038435254 -0.030542223 0.22739518 0.15961067
0001d0 2b 03 fe bc 59 6d 23 be 52 dc bb 3c 28 e4 b3 3d
       -0.03100737 -0.15959682 0.022932205 0.08783752

lstm.weight_ih_l1 f4 [120, 30]
000000 05 95 9c 3e 85 f6 c1 be 4c ca 2e bd b4 ae 57 be
       0.30582443 -0.37883392 -0.042673394 -0.21062738
000010 7d b0 67 be 10 29 78 bc 04 9b 1f be b6 d8 15 be
       -0.22625919 -0.015146509 -0.15586478 -0.1463345
000020 34 ed 8f be 95 9e 6f 3e e5 5f 17 3e cc 8d 7d 3d
       -0.2811066 0.23400338 0.14782675 0.061902806
000030 ee ca 51 3e 7e 43 05 be f4 6b ff 3d 62 27 22 be
       0.20487568 -0.13014027 0.12471762 -0.15835336
000040 00 21 23 be f8 2b 78 3e 69 53 4a 3d 15 81 6d 3e
       -0.15930557 0.24235523 0.049395952 0.23193772
000050 4d f8 be 3d 24 26 11 3e 17 24 21 be 6d ae 48 3e
       0.09324703 0.14174706 -0.15736423 0.19597788
000060 91 1c df 3c 38 46 8b be 69 28 62 3b c2 df 9d be
       0.027235301 -0.2720201 0.003450895 -0.30834776
000070 0b 2c fb bd a3 36 95 3e 65 ab 2e bd 21 75 7b 3e
       -0.1226426 0.29143247 -0.042643923 0.245564
000080 08 6b 82 be bd a5 c4 3e e8 d5 09 3e 43 52 2e be
       -0.25472283 0.38407698 0.13460505 -0.17023568
000090 ca 35 e6 3c 7e 2c 18 3e bc 8e ae 3e 3c f8 b6 3b
       0.02810182 0.14860722 0.34093273 0.005583791
0000a0 f1 76 08 3f 09 57 fe 3d 5d 01 09 3e 1f 87 af be
       0.5330649 0.124189444 0.13379426 -0.34282777
0000b0 2b 8e 4d 3d 1a e3 62 3d f3 c4 22 3e a1 89 74 be
       0.05018441 0.055392362 0.15895443 -0.23880626
0000c0 11 df 9d 3e a3 85 8f be e3 49 fe be 72 53 38 3d
       0.3083425 -0.28031644 -0.49665746 0.045001455
0000d0 ea 8e 81 bc ec d8 8e be fd 88 3d 3e d4 b8 76 be
       -0.015815217 -0.27899873 0.18509288 -0.24093944
0000e0 42 d2 fd 3d 35 55 58 bd 4d 94 c9 3d ef c0 06 3e
       0.12393619 -0.052815635 0.09842739 0.13159536
0000f0 16 eb 68 3e 46 64 2f bf 8e 97 b1 bd e7 79 b7 bd
       0.22745928 -0.6851238 -0.08671485 -0.08958798
000100 45 00 db bd 89 65 ab be fb 33 1e be 88 1d 38 3d
       -0.10693411 -0.33475903 -0.15449516 0.04495004
000110 41 3e 28 be 8f 96 79 3e d7 5b 49 3e 75 32 fd bc
       -0.16429998 0.2437384 0.1966394 -0.030907849
000120 bf d6 aa 3e 42 f1 b5 bc 35 a7 08 be dd 8e 89 be
       0.33366963 -0.022209767 -0.13345034 -0.2686681
000130 ab 13 29 3e b3 35 74 3f 33 81 66 3d 86 65 1a 3e
       0.16511409 0.9539444 0.056275558 0.1507779
000140 17 fd 41 3e 32 57 26 3e d0 dd 45 3e c4 fc 19 3d
       0.18944202 0.162442 0.19322896 0.03759457
000150 50 cc 6e 3e 70 71 8e be c3 ef 5c be 8e a1 0e 3d
       0.23320127 -0.2782092 -0.21575837 0.03482204
000160 ce 71 0f 3e 39 9b 24 3f ae b6 04 3e bf b2 07 bd
       0.14008257 0.6429935 0.12960312 -0.03312945
000170 67 ad 5c be 10 11 75 be 4c f7 94 be 8f 9b 0b be
       -0.21550523 -0.2393229 -0.29094923 -0.1363356
000180 95 96 b4 3d 66 ec c4 be ca c6 7e be ec fb 96 3e
       0.08817784 -0.38461608 -0.2488052 0.29489076
000190 8c 87 f8 3e da 1e ee 3e 3b 7c 70 3e 58 e4 1f bc
       0.48540914 0.46507913 0.2348489 -0.009759031
0001a0 02 48 60 bc 04 20 dc 3d 10 be 47 bd 5d 3b 88 3e
       -0.013689043 0.10748294 -0.048765242 0.2660779
0001b0 f8 e3 c2 bc 93 8f ab bc 5d 2d 4e be 9e 7b 48 be
       -0.023790345 -0.020942485 -0.20134492 -0.19578406
0001c0 8b 94 69 bd 20 0a 1d 3e cd 8c 7e 3e bc 36 ba be
       -0.057026427 0.15335894 0.24858399 -0.36369884
0001d0 ac bf 99 bd 0c 88 29 bd 97 38 a3 3d 83 5c 9d 3e
       -0.07507262 -0.04138951 0.07969778 0.30734643
0001e0 d1 dd 11 be 5d 8b ff be 08 43 6d be 32 04 3e 3d
       -0.14244772 -0.49911013 -0.23170102 0.04639072
0001f0 41 1b 6a bd 79 aa b1 bd e9 e6 0d bd 4d ac 01 be
       -0.057154898 -0.08675093 -0.03464404 -0.12663384
000200 6c bc 85 3e 7e 13 1b 3f 95 f2 73 3e 7b 89 b4 bd
       0.26120317 0.6057662 0.23823006 -0.08815285
000210 c9 00 23 bf 41 6f ee 3e 33 ff 58 3c eb 9e 70 be
       -0.63673073 0.46569255 0.013244438 -0.23498122
000220 f5 f5 92 3e bf b0 e0 bd 8f f2 ec bd 70 48 4b be
       0.28703275 -0.10971212 -0.11569702 -0.19851851
000230 bf 64 dd be 26 75 c6 3d 5d ea d1 3e 80 5f 7c be
       -0.43240926 0.09690313 0.40999117 -0.24645805
000240 06 6c 01 bd 2f 8a dc 3d 9c 2d 19 3e 83 dc 01 3f
       -0.03159716 0.10768544 0.14958805 0.507271
000250 1c 28 d2 bd ca d9 07 be cb 9e 5f bc 25 26 0f be
       -0.102615565 -0.13266674 -0.013648699 -0.13979395
000260 e1 b6 d1 bd a2 60 55 3e f5 3c ce bd 65 fa 7b bd
       -0.102399595 0.20837644 -0.100702204 -0.06151809
000270 12 93 26 bc 6b 21 1c 3e 04 84 20 be 79 9d a4 3d
       -0.0101669 0.15247123 -0.1567536 0.08037848
000280 70 aa dc 3d fe e3 bc 3b b1 24 e0 bd d2 e2 b6 3e
       0.10774696 0.0057644835 -0.10944498 0.35719925
000290 a6 a1 4b 3d dd e4 72 bc 6d 7f 64 3e 1a 82 05 bd
       0.049714707 -0.014825073 0.22314234 -0.032594778
0002a0 a7 c5 25 3e f6 ef 14 be 39 3e f8 3d 27 cf bb bd
       0.1618868 -0.14544663 0.12121243 -0.091703705
0002b0 ab 41 ce 3d 0c 1d 9f bd 5c e5 6b bd fe 5c 22 3e
       0.10071119 -0.07769212 -0.05759178 0.15855786
0002c0 f7 6c be bd 65 ba bd bd 74 8a 8d be 16 99 a5 3d
       -0.09298127 -0.092640676 -0.27644694 0.080858395
0002d0 ad 69 ac 3e 3b d9 3f bf 10 bd de bb 55 fe 2d be
       0.33674374 -0.7494084 -0.0067974404 -0.16991551
0002e0 4f 67 a3 bd 98 32 cd bd 39 c6 dd 3d ae 7a 29 3d
       -0.07978689 -0.100194156 0.108288236 0.041376762
0002f0 5f 74 6e 3d ac 54 f7 3e 30 0d 83 3d bb b8 80 3d
       0.05821645 0.48306787 0.06399 0.062852345
000300 2e 9c 88 bd 87 e6 b2 bd 7e a9 82 3d ca 25 60 be
       -0.06670414 -0.08735376 0.06379984 -0.21889415
000310 50 31 15 be 38 94 96 3d bc 99 c9 3c 79 8b 91 3c
       -0.14569592 0.07352489 0.02460944 0.017766701
000320 ca fb 63 3e 3c 16 88 3b ad 24 8c 3e 4d 1e af bd
       0.22264019 0.004153041 0.2737173 -0.08550701
000330 0c 78 98 3e f7 bb b9 be 38 fd bd bd f4 e8 75 3d
       0.29779088 -0.36276218 -0.09276813 0.060036615
000340 94 2a 87 3e f4 9b 2d bd 4b 3d 88 3e 7b 64 07 3e
       0.26399672 -0.042385057 0.26609263 0.13221924
000350 0a 1e 1b bf 8a 8b 5c 3d 61 40 09 bf bf 0f d0 be
       -0.6059271 0.053844012 -0.5361386 -0.40637013
000360 d6 c5 dc 3d 21 cd 2a be e0 f2 0d 3d 47 4d 33 3e
       0.10779922 -0.16679813 0.03465545 0.17509948
000370 0a cb 2d 3f 11 b0 15 3f 76 8f 99 3d a5 84 a2 3d
       0.6788794 0.5847178 0.07498066 0.07935456
000380 b4 4d aa bd c5 d0 3b 3e ae 2d 36 3e 4b 81 ed be
       -0.08315602 0.18341358 0.17790863 -0.46387705
000390 6c 69 26 3e 1d ca c1 bd e4 9d cf be 37 6c db 3e
       0.16251153 -0.09462378 -0.40550148 0.42856
0003a0 22 48 a4 bd 4e ee fc bd a8 f5 10 3f 18 6a d9 3d
       -0.08021571 -0.123501405 0.5662484 0.10615939
0003b0 cf 72 a1 bd 6f 14 1b be 26 64 2e 3d 00 89 1c bd
       -0.07883226 -0.15144514 0.042575978 -0.03821659
0003c0 4d cc be bd 64 a8 24 bf d7 1d 30 bf 11 b7 c5 be
       -0.09316311 -0.64319444 -0.6879553 -0.3861623
0003d0 6a a3 05 bf 42 49 86 be 41 31 a2 bd a4 f1 45 bf
       -0.52202475 -0.26227766 -0.07919551 -0.7732184
0003e0 47 5b 28 3d ef d6 f8 3d d5 60 0e 3f 2c 2a 65 3e
       0.041102674 0.1215037 0.55616504 0.22379369
0003f0 78 ed b7 3e 0f a2 0f bf 8a e9 28 3d a6 9d ae bd
       0.35923362 -0.56106657 0.041238345 -0.08526163

lstm.weight_hh_l1 f4 [120, 30]
000000 d4 22 89 be e9 06 96 3d ac 68 47 3d f3 b5 8d be
       -0.26784384 0.07325537 0.048683807 -0.2767788
000010 87 6f 0e 3e 69 bf b1 3e 15 dd 17 3e bf 77 92 be
       0.13909732 0.34716347 0.1483043 -0.28606984
000020 0c bf 6c be 57 30 1b 3c b3 7f d2 3e b3 b7 67 be
       -0.23119754 0.009471974 0.41113052 -0.2262867
000030 d1 30 d2 3d fd cb e3 bd 00 3a 62 3c a2 7f 25 bf
       0.10263217 -0.11122892 0.013807774 -0.6464788
000040 40 b5 24 be 65 d9 8e 3c 9d 12 0d be 93 5e ab bd
       -0.16084766 0.017437646 -0.13776632 -0.08367648
000050 47 f4 32 3e db 0d 0d 3e 13 3c 4b bd a4 a1 85 3d
       0.17475997 0.13774817 -0.049617838 0.06524971
000060 f0 cc d8 3d 74 b9 22 be e1 b3 6c 3e ea fd bf bd
       0.10585964 -0.15891057 0.23115493 -0.09374602
000070 79 75 3b be 97 ab b2 bd 92 72 c8 be d7 36 0d bc
       -0.18306531 -0.087241344 -0.3914991 -0.008619032
000080 07 65 b5 3e 37 cb c1 3e d5 f2 d3 3e 6c 8f 76 be
       0.3542864 0.37850353 0.41396204 -0.24078149
000090 6b cb 93 3e 32 fa 18 be 17 de ee be da 16 95 3d
       0.28866133 -0.14939192 -0.46653816 0.07279749
0000a0 48 61 59 be d7 d5 d0 3e 10 10 76 3d 61 42 ae 3d
       -0.21228516 0.40788147 0.060073912 0.085087545
0000b0 43 00 96 3e e7 2d 1e be 9c 3b 95 be 1a 64 c0 3d
       0.29297075 -0.15447198 -0.2914704 0.09394093
0000c0 ad af fb 3d c2 1d da bc 4d 9e 6f 3e 5d a6 2a be
       0.12289367 -0.026625518 0.2340023 -0.16665025
0000d0 08 64 47 3f cb 10 06 3e 18 24 f4 be 3e 22 61 3e
       0.7788701 0.13092344 -0.47683787 0.21985719
0000e0 56 67 11 3f 73 43 44 be 49 a9 e5 3e 84 da 6b 3e
       0.56798303 -0.19166355 0.44855717 0.23032576
0000f0 b4 c4 ea bd ab 66 9e bd 89 9f 4e bc 0d b8 b4 bd
       -0.114632994 -0.07734426 -0.012611278 -0.088241674
000100 64 fc 3f 3e 6f 46 4d 3d cb a8 49 bd 96 d2 42 3e
       0.18748623 0.050116 -0.04923324 0.19025645
000110 ff 1e 0f be 39 59 05 be 9d 6b 2a 3d 14 95 64 bb
       -0.13976668 -0.13022317 0.041606534 -0.0034878897
000120 fd 3f db 3e 6a 4d 93 3c 94 13 25 be 37 b8 c7 bd
       0.42822257 0.01798125 -0.1612075 -0.09751933
000130 a6 43 f6 be 56 4f 60 3e c1 eb 5f bd 6e 01 f0 3d
       -0.48098487 0.21905264 -0.05466819 0.11719023
000140 f4 2c 69 bd dc e6 0b bd fe 20 c1 3d fc 05 0c 3c
       -0.056927636 -0.03415571 0.09430121 0.008546349
000150 e4 72 e4 bd 3a f4 8c bd d8 ce af 3d c0 79 b0 be
       -0.11154726 -0.0688252 0.08584374 -0.34467888
000160 f2 cb b2 3d 3d 9f 9a be d5 5f b5 be fd 56 d6 be
       0.08730306 -0.30199614 -0.35424677 -0.41863242
000170 7e df 02 3e d9 24 c1 bd 6c d0 2b 3e 9b 55 8a 3e
       0.12780568 -0.09430856 0.16778725 0.27018437
000180 17 32 b8 3e bd fb 86 3e 43 dc 32 3d d5 17 7b be
       0.35975716 0.26363936 0.04366709 -0.2452081
000190 bc c1 81 3e 71 48 37 3d e1 7d a3 3e 16 3b 08 be
       0.2534312 0.04474682 0.31931975 -0.1330379
0001a0 7e b9 91 be 69 9c 80 be c4 f4 3c be a6 f0 80 3e
       -0.28461832 -0.2511933 -0.18452746 0.251836
0001b0 4c b6 eb 3c 8d aa 57 be 3c 1e 8e be 3c 44 73 3e
       0.02877345 -0.21061154 -0.27757442 0.23756498
0001c0 35 88 f0 be c8 32 6d 3c 0a 03 0f be 58 9f 12 3c
       -0.46978918 0.014477439 -0.13966003 0.008949123
0001d0 d0 7c e1 3d a2 b1 d4 bd bf a8 0f bc 60 b4 01 be
       0.11010134 -0.10385443 -0.00876826 -0.12666464
0001e0 3d 17 74 bb 9e 8b 9b be 91 5c a3 bd 8d b7 3e 3d
       -0.0037245296 -0.30379957 -0.0797664 0.046561766
0001f0 df 0f d5 bd 05 d3 00 be fb 6f be 3e f7 b3 e1 3e
       -0.10403418 -0.12580498 0.3719481 0.44082615
000200 ca aa 83 bb e8 2f 9c 3d 70 95 17 3d 5f d9 64 3e
       -0.0040181624 0.07626325 0.03700775 0.22348545
000210 e3 d8 dc 3d 79 5e 2f 3e 54 ae 04 bd 1b dd 09 3e
       0.10783555 0.17125882 -0.032392815 0.13463251
000220 03 05 d0 be 6d 35 51 3e 39 c7 93 3e df 1a 9c 3c
       -0.40628824 0.20430537 0.28862932 0.019055782
000230 b2 7e ad 3d 7a 02 7d bd ff 34 23 3e ba 39 f1 3e
       0.08471431 -0.06176994 0.15938185 0.47114354
000240 7c 71 b3 be c3 62 1a be 05 c0 b3 bc 08 ab 83 be
       -0.3504752 -0.15076737 -0.021942148 -0.25716424
000250 63 d9 10 be 81 ca ce 3c 04 a6 bb 3d f6 af 21 3e
       -0.14145426 0.025243046 0.09162524 0.1578978
000260 8f 73 1d 3e 52 f7 9d bd 82 8d df bc 5b 4a 3f be
       0.15376113 -0.07713188 -0.027289156 -0.18680708
000270 af 9b 7d bd 82 c4 6f be a7 c6 94 bb 6e 4e 3d 3e
       -0.06191605 -0.23414806 -0.004540283 0.1848695
000280 e0 b0 a5 bd d9 49 9c 3d e6 28 3c 3d ac 64 02 3e
       -0.08090377 0.07631273 0.04593744 0.12733716
000290 97 23 a0 3d 75 ca 60 3c 51 a1 dc 3d c8 44 58 bd
       0.07819288 0.0137201445 0.10772956 -0.05279997
0002a0 b6 ca 53 3d 56 00 90 bc c6 9d 72 3e c6 da a8 bc
       0.051706992 -0.017578285 0.23692998 -0.020612132
0002b0 52 2f e6 3b 56 f1 33 be 87 d9 ac 3d 8a 40 72 bc
       0.007024684 -0.17572531 0.084399275 -0.014785895
0002c0 5a 40 9a 3d e7 8d ad 3d 78 8d 22 be 85 b6 c7 3d
       0.07531805 0.08474331 -0.15874279 0.0975161
0002d0 ff bc f2 bd f2 73 a9 be f2 e6 b6 bd 56 f5 d8 bd
       -0.118524544 -0.33096272 -0.08930768 -0.10593669
0002e0 46 37 ad 3e 8e 9a 84 3e d9 56 ad bc 8d f5 09 3e
       0.33831233 0.25899166 -0.021159576 0.13472576
0002f0 40 b9 ee bd 34 e8 ab 3c b5 d1 25 3e 56 de e4 bd
       -0.116564274 0.020984747 0.16193278 -0.1117522
000300 86 47 37 3c e7 99 99 be 5a e1 08 3d 07 6b 80 be
       0.011186486 -0.3000023 0.033418037 -0.25081655
000310 fd c7 5b be fb 19 1b 3e b2 04 ce bc 88 bf df bc
       -0.21463008 0.1514663 -0.025148723 -0.027313009
000320 4f 02 d3 bd 54 ea a4 bd 56 90 f4 bd f3 fe 8e 3c
       -0.10303175 -0.08052507 -0.119415924 0.017455554
000330 80 a7 b9 bd 33 0e 1c be 6e 64 75 3e 46 7e a3 be
       -0.09065151 -0.15239792 0.23964092 -0.31932276
000340 4c 68 46 be dc d7 b2 be 00 7a 2e be 48 1d 34 be
       -0.19375724 -0.34930313 -0.17038727 -0.17589295
000350 fb 12 9b 3e 5b 5c 33 3e ed de 59 3e d4 0e a0 bc
       0.30287918 0.175157 0.21276446 -0.01953832
000360 bb 4f 94 3e 79 e3 44 3e 72 02 bf 3d 1d 6b 0e 3e
       0.2896708 0.19227399 0.09326638 0.13908048
000370 02 b5 2c 3e b7 33 9c 3e 6d 88 1f 3e 81 79 9d be
       0.16865924 0.30508205 0.15579386 -0.30756763
000380 4c 35 ac 3e bc 78 08 3d 49 db 16 bf a3 93 ee 3e
       0.33634412 0.033318266 -0.5892835 0.46597013
000390 44 3f 72 3d 06 03 33 3e 64 48 1a 3e b1 99 91 3e
       0.059142366 0.17481622 0.15066677 0.2843757
0003a0 70 47 3e 3f 61 4c 0e 3e 64 df 95 be 1a a0 33 3f
       0.74327755 0.13896324 -0.29271996 0.7016617
0003b0 a3 99 00 3d d8 cf d0 be 00 ff 28 3e 50 88 6a be
       0.03139652 -0.40783572 0.16503525 -0.22903562
0003c0 0b 87 f0 be 8b 54 65 bf 01 3f 20 3f 9e c1 57 bd
       -0.4697803 -0.8958213 0.62596136 -0.052674882
0003d0 75 04 4a 3e a0 bf 6f 3e b6 75 0a 3f d0 7b 3c 3f
       0.19728263 0.23412943 0.5408586 0.7362642
0003e0 b9 9d 5b 3e 3b 24 7d be bf d5 1c 3e 4e 77 b8 3e
       0.21446885 -0.24720852 0.15315913 0.36028522
0003f0 b5 4a 9b 3e 1d 1c f4 be 4c 52 15 3e c6 3f 39 3d
       0.30330434 -0.476777 0.14582175 0.045226835

lstm.bias_ih_l1 f4 [120]
000000 16 d2 11 bd f4 50 53 bd 5a 89 50 3d 34 cb 10 3e
       -0.035600744 -0.051590875 0.05091224 0.14140016
000010 88 9d 08 bd 90 ea ae 3d 09 68 92 bd 65 18 a6 be
       -0.03335336 0.08540833 -0.071487494 -0.32440487
000020 8e 7a a6 3e 2f d5 c8 be 31 66 ab 3c 7d 78 bc bd
       0.32515377 -0.39225146 0.020922752 -0.09202669
000030 67 c4 1f be 9c 9e f6 bb 32 ce b7 bd 80 d7 56 be
       -0.15602265 -0.007526232 -0.089748755 -0.20980644
000040 be dd 7a 3d 4d d8 13 3d 7b 00 b7 bd d2 5b 5f be
       0.061246626 0.036094952 -0.089356385 -0.2181237
000050 e9 f6 92 be 3c 85 21 3e 78 27 9c 3e 49 fb 02 be
       -0.28704002 0.15773481 0.30498862 -0.1279117
000060 19 76 ff bd 8c 07 16 3d e6 d6 d2 bd e8 2e a3 bd
       -0.12473697 0.03662829 -0.10294895 -0.07967931
000070 45 2c 66 3e ea c0 d7 be 15 2d 70 bd 63 34 eb bd
       0.22477825 -0.4213937 -0.058636744 -0.11484601
000080 1d e6 41 bc c6 33 d6 bd f5 4d e4 3d a7 8a 3e be
       -0.011834648 -0.10459094 0.111476816 -0.18607579
000090 e6 a1 15 3d 7b e8 24 be 83 1c 76 3e 53 26 a4 be
       0.03653135 -0.1610431 0.24034314 -0.3206049
0000a0 6f 44 47 be 87 6f 93 be f0 e4 6e bd 96 2a 4e 3d
       -0.19459699 -0.28796026 -0.0583238 0.050333582
0000b0 d1 12 97 be 80 6f 49 be c9 cb 62 be 62 ad 63 be
       -0.29506543 -0.1967144 -0.2214805 -0.22234109
0000c0 7f c4 1c be 60 35 88 3d 9d 14 d1 be c1 1a 25 be
       -0.15309332 0.066508055 -0.4083604 -0.16123487
0000d0 7d c4 49 3e e5 fe e3 bd e0 71 57 3c 59 a1 0c bd
       0.1970386 -0.11132602 0.0131497085 -0.03433356
0000e0 3f 73 71 be 84 ce 84 bd b8 51 83 be 75 02 6a be
       -0.23579119 -0.06484702 -0.25648284 -0.228525
0000f0 dd ce b5 3d 09 11 be bd 70 df 7d 3e e6 80 89 3d
       0.08877347 -0.09280593 0.24792266 0.067140386
000100 ca c7 31 3d 45 0c 1d 3e ab c7 34 3e be 83 03 3d
       0.043403424 0.15336712 0.17654292 0.03210806
000110 30 8c 27 bd 99 ba f7 3d 0e 15 c2 bd 15 1d 66 3e
       -0.040905178 0.120961376 -0.09476672 0.22472031
000120 4b fc 4c bd c4 9f 66 bc 4a 53 25 bd 59 39 cc bb
       -0.050045293 -0.014076177 -0.040362634 -0.0062324223
000130 b0 30 6b 3d 27 07 a0 bd 6e f1 32 3e 18 1c 05 3e
       0.05741948 -0.07813864 0.1747491 0.12998998
000140 f1 44 83 bc a8 39 14 bd 40 81 b8 3c 6b d6 bb bd
       -0.016024085 -0.036187798 0.022522569 -0.09171756
000150 c2 a3 8f bd 7d 02 d7 3c 3f b9 85 bd 9d e2 27 3d
       -0.07013656 0.026246304 -0.065294735 0.0409876
000160 bc dc 96 3e 8a 3d 94 3d f3 29 90 3d bd 72 0c 3d
       0.29465282 0.072383 0.07039251 0.03428911
000170 47 fe b9 bd 12 ed a1 3a a0 99 88 3d 59 11 07 be
       -0.09081703 0.0012353978 0.06669927 -0.13190211
000180 37 af 17 3e 93 8d 55 bd 4b 15 b4 3e 77 76 bd bd
       0.14812933 -0.05213697 0.35172495 -0.09251111
000190 b5 91 05 be 69 08 96 bd cc fe ad 3a b0 aa 09 3e
       -0.13043864 -0.07325823 0.0013274788 0.13444018
0001a0 f0 3e ae be 0e c8 6d be d6 02 62 bd 0c bc ae bd
       -0.34032393 -0.23220846 -0.055178486 -0.08531961
0001b0 90 c4 ef 3d 86 b9 79 bd 3e a8 8e be ef 14 2e 3e
       0.11707413 -0.060967945 -0.27862734 0.17000173
0001c0 c3 cd 80 bc b1 5f d7 bd 0c 9f fc 3b 30 0e 8c 3d
       -0.015723115 -0.105162986 0.0077093896 0.068386436
0001d0 8e 00 0e be ec c2 5c be 2e 2f ae bb de db c9 be
       -0.13867399 -0.21558732 -0.005315683 -0.39425558

lstm.bias_hh_l1 f4 [120]
000000 8c 86 42 be 9f 3f 12 be a5 2c 19 3e d4 38 b1 3d
       -0.18996638 -0.14282082 0.14958437 0.08653417
000010 c2 47 bf bd 96 a1 a9 bc 0c 54 91 3c 65 63 b3 be
       -0.093398586 -0.020706933 0.017740272 -0.3503677
000020 7c 67 86 3e 8b e3 c1 be 34 0c 6f bd 1c 3f 5a 3d
       0.26250827 -0.37868914 -0.058361247 0.053282842
000030 83 e3 c2 bd 49 32 d8 bd 4b d4 1c be 54 90 ca bd
       -0.09516051 -0.10556466 -0.15315358 -0.0989081
000040 6b 22 3b be f6 93 34 3e dc b4 5b 3d d9 fa e4 bc
       -0.18274848 0.17634568 0.053639278 -0.027951645
000050 f8 20 9a be 2d 94 5a bd 45 38 fc 3d 5f 29 9e bd
       -0.30103278 -0.053363968 0.1231542 -0.07722735
000060 b6 9c 3b 3e 19 2c 10 3c 03 79 47 be d3 20 87 be
       0.18321499 0.008799576 -0.19479756 -0.2639223
000070 c2 02 bc bc c8 5e 25 be 77 82 bc be aa 94 79 bd
       -0.022950534 -0.16149437 -0.36818287 -0.060932793
000080 6e 10 89 3d c6 b2 cf 3c 58 40 26 3e a5 59 f3 3b
       0.06692587 0.0253538 0.16235483 0.007426458
000090 51 b4 96 3c 57 48 2f be 3a a4 42 3e ca 4a 12 ba
       0.018396528 -0.17117439 0.1900796 -0.00055806024
0000a0 1e 43 fe 3b f3 93 bc be ba 81 8d bd 1f b4 1a be
       0.007759466 -0.36831626 -0.06909509 -0.15107773
0000b0 61 04 3f bb 7f 98 30 be 9d 3e e5 bd f6 64 66 bd
       -0.0029146897 -0.17245673 -0.11193583 -0.056248628
0000c0 d3 20 a7 3d 68 1b d3 bd df 8b cd be a6 af 3f bd
       0.081605576 -0.10307962 -0.40145776 -0.04679837
0000d0 4e f2 26 bb 7c 1f 96 be bc 8a cd 3d 72 43 30 3e
       -0.0025474015 -0.29320896 0.10036227 0.17213228
0000e0 71 4a b3 be 85 d5 8c be 7f b4 27 be 57 24 a9 be
       -0.35017732 -0.27506652 -0.16377448 -0.33035538
0000f0 3f 7d 32 be ba 51 5f be 3a 10 3e 3c ee 08 ed 3d
       -0.1743059 -0.2180852 0.011600548 0.11573969
000100 b3 ed 2c bd b0 68 35 be 51 c8 9d 3d 1a a3 cc 3d
       -0.042218875 -0.17715716 0.07704223 0.09992047
000110 88 94 06 bd 71 74 24 bd 05 97 5a 3d 94 47 84 bd
       -0.032856494 -0.04015011 0.05336668 -0.06458965
000120 e8 d4 b0 3d 49 e2 4a be 4a 7c c1 3d ce e4 4c 3c
       0.08634359 -0.19812883 0.094475344 0.012505723
000130 ca a5 f0 3d c2 6e 86 3d 08 e7 23 bd 53 3e 41 3c
       0.11750372 0.06564094 -0.04001525 0.011794644
000140 be c0 09 3e f6 a3 14 be 72 29 b1 3d 78 99 17 be
       0.13452432 -0.14515671 0.08650483 -0.14804637
000150 4e 90 8e 3d 06 db 8d 3c f4 2f 74 3e 8e e5 3e 3e
       0.06961118 0.017316353 0.23846418 0.18642256
000160 44 e3 25 3d c4 7d e2 3c 89 78 1e 3d 6a 8e 51 be
       0.04049994 0.02764786 0.03868917 -0.20464483
000170 0d d7 15 3e 35 b1 88 3e 36 e5 b0 3d 7f c4 61 be
       0.14632817 0.26697698 0.086374685 -0.22047614
000180 f5 9b 35 3e f2 18 7e be ec 46 92 3e 09 0b ba be
       0.17735274 -0.24814203 0.28569734 -0.36336544
000190 34 4f aa 3d 43 0f c3 3d d6 fe 80 bd 4e 36 12 3e
       0.08315888 0.09524395 -0.06298606 0.14278528
0001a0 52 62 a5 be d7 08 88 be 88 33 86 be e2 0f 51 3e
       -0.32301575 -0.26569244 -0.2621119 0.20416215
0001b0 ad d7 8d 3d 46 10 61 bd c3 02 23 be fc 00 e5 bd
       0.069259025 -0.05494716 -0.15919022 -0.111818284
0001c0 23 5e de 3c 27 c4 d4 bd 1f 7a e1 3d 6b 5c 03 be
       0.027144497 -0.103889756 0.11009621 -0.12828223
0001d0 29 8a 89 3d 45 05 eb bd 14 1d 52 3d 34 3f b3 be
       0.06715805 -0.114756145 0.051297262 -0.35009158

lstm.weight_ih_l2 f4 [120, 30]
000000 5e 2b 25 3d 8d 82 bd bd 52 44 85 3d b6 52 be 3c
       0.04032456 -0.09253416 0.06507172 0.023232799
000010 37 45 b0 3d a9 5b 6b bd 95 d7 37 bc e0 43 32 3e
       0.08606952 -0.05746046 -0.011220832 0.17408705
000020 8d 29 aa 3d 42 c6 75 be 26 1e 10 be 85 0a 42 be
       0.083087064 -0.2400141 -0.14074 -0.18949325
000030 2c 9d 02 3d eb 0f e6 3d 42 40 02 3e a3 eb 0a 3e
       0.031888172 0.11233505 0.12719825 0.13566451
000040 0f 53 9a bc 6b d9 79 bd ba 82 70 bd 4c b6 6e bd
       -0.018838434 -0.06099836 -0.05871842 -0.05827932
000050 81 95 4d 3d 62 a6 0f 3e 5a 3b a5 be a1 b4 a3 bd
       0.050191406 0.14028314 -0.32271844 -0.079934366
000060 2c ee 1e bd a3 b4 a4 3e 24 54 16 bd 13 37 cc bd
       -0.038801357 0.32169065 -0.036701337 -0.09971442
000070 31 cf 7b be 64 c7 67 3d cd dd 52 bd ab a6 aa bd
       -0.24590756 0.056586638 -0.051481057 -0.08332571
000080 3d 21 91 3c f0 41 39 3e e1 59 87 3e a3 9c 43 be
       0.017716045 0.1809156 0.2643576 -0.19102721
000090 17 fc 18 be a6 d4 c0 bd e7 ee 44 be 50 0b b5 bd
       -0.14939915 -0.094155595 -0.19231759 -0.08840048
0000a0 2b 5f 4a 3e 59 00 c5 3d 02 f5 17 bb 43 00 8d bd
       0.19762866 0.09619207 -0.0023186808 -0.068848155
0000b0 1b 1e ec 3c 02 99 87 3e 3f 85 3d bd 6d 18 87 be
       0.02882295 0.26483923 -0.04626965 -0.26385823
0000c0 95 2b 11 be ad f6 f3 bd eb 9c ba 3d 82 56 23 3e
       -0.14176781 -0.11912284 0.09111961 0.15950969
0000d0 48 a8 27 be 1e e4 c0 3c a1 46 d3 3d a7 80 4c be
       -0.16372788 0.023546275 0.10316206 -0.19970952
0000e0 fa c7 95 3d 91 ee a9 3d d9 e0 4b be 90 04 a6 bc
       0.07313533 0.08297456 -0.19909991 -0.020265847
0000f0 31 b8 8b bc 1d 06 da bd db b6 43 3e a4 4b dc bd
       -0.017055603 -0.10645697 0.19112723 -0.10756615
000100 a9 4c 32 3e 82 78 a8 3d 46 fa 3b 3d 51 f1 9c bd
       0.17412056 0.0822611 0.045892976 -0.07663215
000110 86 62 ac 3c b3 8a 2c 3e 9f 5a 32 3e 3b 23 3c 3e
       0.021043073 0.16849785 0.17417382 0.18372814
000120 e0 82 8e bc 86 4e 73 be 62 bb 44 bd 62 57 63 be
       -0.01739639 -0.23760423 -0.048030265 -0.22201303
000130 50 4c ae 3c fc 2f 4c bd 3c 18 1b 3c 0e 9f c7 3c
       0.021276623 -0.04985045 0.009466227 0.024367835
000140 b2 44 a3 bd f4 ce 48 3c 12 cb 0a 3d 06 75 11 be
       -0.07972087 0.012256373 0.03388507 -0.14204797
000150 db 66 42 be 13 d4 d4 bb fb bb 73 3d a2 66 31 3d
       -0.18984549 -0.006495008 0.059505444 0.04331077
000160 9d 99 cd 3c 54 4d 16 bd 2f c7 80 3e c7 9d c6 3d
       0.025097663 -0.03669484 0.25151965 0.096980624
000170 3f 26 2d 3d 0a 10 7a 3e ff fa 7b 3d 4a 47 75 3d
       0.042272802 0.24420181 0.061518665 0.05988244
000180 a0 e3 f9 ba bb ae 16 3e 4f d8 4d be ec 9c a2 3d
       -0.001906503 0.14715092 -0.20102046 0.07940087
000190 31 81 5b 3e 52 3a 29 be ef 31 bb be 53 df 65 3d
       0.21436001 -0.16526154 -0.36561534 0.05612118
0001a0 21 1d 77 bd 03 ad 14 bd 85 30 8e 3d f4 2d 18 be
       -0.060330514 -0.03629781 0.06942848 -0.1486128
0001b0 c4 05 6f be 04 2e 45 3e a6 25 43 bd f3 44 df 3d
       -0.23342043 0.19255835 -0.047643326 0.10901823
0001c0 3f 30 f2 bd 9c ff e8 bc 17 91 26 3e 4f e7 3b 3e
       -0.118256085 -0.028442197 0.16266285 0.18349956
0001d0 72 88 a4 bd 8c aa 27 bd 7b 40 46 bc b9 de 43 bd
       -0.080338374 -0.04093413 -0.012100334 -0.047819827
0001e0 2f 91 96 3e 95 ef e4 3c 59 04 80 be 6c 22 7c 3e
       0.2940764 0.027946273 -0.25003317 0.24622506
0001f0 d3 0b 38 be 59 4e 0d 3c c4 e7 22 be 9c 74 ea 3d
       -0.1797326 0.008624637 -0.15908724 0.11448023
000200 92 24 a2 bd 90 5c 15 bd 7f 1f 8f be 86 fc 04 3d
       -0.079171315 -0.036465228 -0.27953717 0.032467388
000210 3f 3f 5c be 43 66 45 3e b5 8a 10 be 51 3d 8f bd
       -0.21508501 0.19277291 -0.14115413 -0.06994117
000220 66 c6 f1 3c 7c a7 53 be 3e 77 00 3e 61 a1 09 3e
       0.029513549 -0.20669359 0.12545487 0.13440467
000230 8c a8 24 be a2 51 94 bd 3c ef 81 bb 43 d5 ec 3d
       -0.1607992 -0.07242133 -0.0039652865 0.11564114
000240 c6 eb 2f bd 3f 03 f2 3d 07 d8 f2 bd 60 8a 23 be
       -0.04294946 0.118170254 -0.1185761 -0.15970755
000250 45 8d de bd 88 18 52 3d 32 56 fc bd d2 ae c9 bb
       -0.10866789 0.051292926 -0.12321128 -0.0061548734
000260 f1 d1 98 3e 7a e1 3c 3b 03 0d 11 3f a7 43 08 bc
       0.29847673 0.0028820918 0.5666048 -0.008316911
000270 53 36 a1 3e 68 76 8c 3d ad 9e 1f bd 8c 1e 1b 3e
       0.3148676 0.06858522 -0.038969684 0.15148371
000280 fe 87 0b 3f 0a e7 b7 bc e0 a4 40 3a 7c 15 87 3d
       0.5450438 -0.022449035 0.0007348787 0.06595895
000290 46 fc 99 3e 47 20 c4 bd ac d2 91 bd c9 1b 17 bd
       0.30075282 -0.09576469 -0.071202606 -0.036891732
0002a0 24 79 08 be 1e d9 80 3d 45 31 b4 3d 67 16 70 3e
       -0.13327461 0.06291412 0.0879846 0.23446046
0002b0 44 c5 14 3e 43 d9 c6 bd 6b d0 19 be da 7b a4 bd
       0.14528376 -0.09709408 -0.15020911 -0.08031435
0002c0 5e ad b3 3d 16 8a 85 be 3e aa df 3d 2c 48 68 bd
       0.087733015 -0.26081914 0.10921143 -0.056709453
0002d0 be e6 30 bd 10 96 fc 3d dd e4 bf 3c c8 01 20 3e
       -0.043188803 0.1233331 0.02342456 0.1562568
0002e0 79 09 7e 3e 49 bf 34 3e 77 a9 e3 3d cc 9a 5d b9
       0.24808301 0.17651094 0.11116307 -0.00021133869
0002f0 99 42 63 bd bb 51 6a 3e 47 c2 a7 3d 83 31 18 3e
       -0.055483434 0.2288274 0.08191352 0.14862637
000300 63 fc af 3d 3a 05 14 3e ed 19 f3 3d 94 0d 00 3e
       0.08593061 0.14455119 0.11870179 0.1250518
000310 64 a4 f4 3d 8c 65 58 bc 5a 49 6e bc 71 4e 83 3c
       0.119454175 -0.013207804 -0.014543856 0.016028615
000320 fb 2c 4b bd 4c 17 3d be 88 51 a5 3c f8 b3 8c bc
       -0.049603444 -0.18465918 0.020180479 -0.01717566
000330 66 5c 5f 3d 60 80 9d be d3 89 1d 3e 5b cb 17 be
       0.054531477 -0.30762005 0.15384607 -0.14823668
000340 66 06 21 bd d1 a7 ad bd e0 8f 30 be 8f c2 24 be
       -0.039312743 -0.08479274 -0.17242384 -0.16089843
000350 a9 d1 02 3f 3c 51 d4 3e 23 9b cb 3e 38 d3 c8 3e
       0.51101166 0.41468227 0.39766797 0.39223647
000360 41 5e 10 3e 69 f6 82 be 31 15 13 bf 2d e0 93 be
       0.14098455 -0.2557862 -0.5745421 -0.2888197
000370 7c 94 bd 3e 37 be b3 3e 19 13 c6 3e f0 c9 fd 3d
       0.37027347 0.3510606 0.38686445 0.12392032
000380 13 db 90 3e 03 38 69 bd 48 b1 0e bf cf 05 83 3c
       0.2829214 -0.056938183 -0.5573926 0.01599398
000390 81 68 48 3e c4 a8 ea be e5 63 81 3d b1 b7 e4 be
       0.19571115 -0.45831883 0.063178815 -0.44671395
0003a0 e5 86 f4 3d 57 ba 05 3e 5f 3a a5 be ff 85 ed bd
       0.119397916 0.13059364 -0.32271096 -0.11597823
0003b0 29 ee 64 3f 8a 59 82 be 52 37 17 3e 59 17 3e be
       0.89425904 -0.25458938 0.14767197 -0.18563594
0003c0 d9 ba c4 3d 83 50 c5 bd d7 ba 4a be f7 a1 e3 bd
       0.09605951 -0.09634497 -0.19797836 -0.11114877
0003d0 10 92 69 3e 46 a3 66 3e fc c8 0d 3b 40 10 32 3d
       0.22809625 0.22523221 0.0021634689 0.04347253
0003e0 1b 7c 5b 3d e1 f5 8f bd 7b e9 cb 3d d4 b2 c6 bd
       0.053585153 -0.070293196 0.09956642 -0.097020775
0003f0 91 09 c7 bd b5 25 6a bd 95 f4 cc bc b6 a5 60 3d
       -0.097186215 -0.057164866 -0.02501897 0.054845534
