predict_synoptic_map/LSTM/net_params.pkl (torch, 10027 bytes, 9 tensors)

rnn.weight_ih_l0 f4 [16, 90]
0	0xbe108970	-0.14114928
1	0x3e0d41b0	0.13794589
2	0x3e4d0ec0	0.20025158
3	0xbf5c6c63	-0.86102885
4	0x3e38e584	0.18056303
5	0x3f388cda	0.7208992
6	0xbec2dd06	-0.38059253
7	0xbd7bb00f	-0.0614472
8	0xbe5efb77	-0.21775614
9	0x3f362e4f	0.7116441
10	0xbeea2e33	-0.45738372
11	0xbe60ebbb	-0.21964924
12	0xbe7ec486	-0.24879655
13	0xbeeb892e	-0.46003097
14	0x3f248e5a	0.6427971
15	0xbe74d8e5	-0.23910864
16	0xbebbb827	-0.36663935
17	0xbf5d05c8	-0.86336946
18	0xbf2bf09d	-0.6716402
19	0x3dddd21a	0.10831089
20	0xbf10af92	-0.565179
21	0x3f0df7db	0.5545632
22	0x3ee0a496	0.4387557
23	0x3e423bf5	0.18968184
24	0xbd097aca	-0.033564366
25	0xbeef99bb	-0.46796975
26	0x3ec64e4e	0.38731617
27	0xbe048510	-0.12941384
28	0xbe4f125c	-0.20221847
29	0xbeb941dc	-0.3618306
30	0xbef67b50	-0.48140955
31	0xbeba9b43	-0.3644658
32	0x3e0adf5a	0.13561764
33	0xbe61d4c5	-0.22053821
34	0x3e44a1b8	0.19202316
35	0xbeb9b271	-0.36268952
36	0xbe41173b	-0.18856518
37	0x3e3ebb76	0.18626198
38	0x3e5a3aea	0.21311536
39	0x3d307116	0.043076597
40	0xbf330b45	-0.6993907
41	0xbf10ae3e	-0.5651587
42	0x3da4dc3b	0.08049818
43	0xbf2c38ce	-0.6727418
44	0xbf837e54	-1.0272927
45	0x3ef92d96	0.48667592
46	0x3e47cf68	0.19512713
47	0x3ec46c8f	0.38364074
48	0x3e253382	0.1613293
49	0xbe9316a8	-0.28728223
50	0x3b7369ae	0.0037141847
51	0xbdf9f666	-0.122052
52	0xbe417d29	-0.18895401
53	0xbe6f16d1	-0.23348548
54	0xbeeca4c9	-0.4621947
55	0xbe00dda7	-0.12584554
56	0xbea61341	-0.32436565
57	0xbeb87534	-0.3602692
58	0xbc6aac89	-0.014323362
59	0xbf532001	-0.8247071
60	0x3e64047b	0.22267334
61	0x3f19d516	0.6009077
62	0x3edc88cc	0.43073118
63	0x3f73efad	0.9528759
64	0xbf5204e3	-0.82038707
65	0x3f7af3ab	0.9802806
66	0xbef4d3e2	-0.47817904
67	0x3de65b7c	0.11247918
68	0xbeb40366	-0.35158843
69	0xbf426380	-0.75933075
70	0x3f038369	0.5137239
71	0x3f800eee	1.0004556
72	0xbf12dc05	-0.57366973
73	0xbe76c7c5	-0.24099644
74	0xbf499fbe	-0.7875937
75	0xbefff575	-0.49991956
76	0xbe751e6d	-0.23937388
77	0x3dd8c10b	0.10583695
78	0x3cd7aded	0.026328051
79	0xbe89ac95	-0.26889482
80	0xbf286aee	-0.6578816
81	0x3ee64b96	0.44979542
82	0xbeb33518	-0.35001445
83	0x3effc204	0.4995271
84	0xbea6f732	-0.3261047
85	0xbf743b40	-0.9540291
86	0xbf30612d	-0.6889828
87	0xbcd5dee7	-0.026107265
88	0xbf20f9fc	-0.62881446
89	0x3d8384fc	0.06421849
90	0x3ec219df	0.37910363
91	0x3fa158f6	1.2605274
92	0x3eb40deb	0.3516687
93	0x3e2b33ab	0.16718929
94	0x3e32cf0b	0.17461793
95	0x3d910beb	0.07082351
96	0x3e0be4ad	0.13661452
97	0xbe59a89e	-0.21255729
98	0x3f5b9221	0.8576985
99	0x3e2df1d8	0.16986787
100	0xbc952421	-0.018205704
101	0x3f102394	0.5630429
102	0x3e780327	0.24219953
103	0x3f084bcd	0.5324066
104	0x3f80fde4	1.0077481
105	0x3e842da9	0.25816086
106	0x3e9c65b3	0.3054634
107	0x3f20147e	0.6253127
108	0x3e884522	0.26615244
109	0x3e9850ec	0.29749238
110	0x3e2a1916	0.16611132
111	0xbdd5d82f	-0.104416244
112	0xbeca4dad	-0.39512387
113	0xbf1d04e5	-0.61335593
114	0x3c54a819	0.012979531
115	0x3dd641bf	0.10461759
116	0xbdd91d17	-0.106012516
117	0xbb4fe759	-0.0031723587
118	0x3e2cfcef	0.16893362
119	0x3e5036e6	0.20333442
120	0xbe36306d	-0.1779191
121	0x3f03b8dc	0.5145395
122	0x3f2ff50a	0.68733275
123	0x3ee3b039	0.44470385
124	0xbee78e9d	-0.45225993
125	0x3e3fb7c4	0.18722445
126	0xbe9913e4	-0.29897988
127	0xbf33cae7	-0.7023148
128	0x3ec5785e	0.38568395
129	0xbe6da0d6	-0.23205885
130	0xbc9753aa	-0.018472511
131	0xbf204cf1	-0.62617403
132	0xbe58abfd	-0.21159358
133	0xbef079fe	-0.46968073
134	0x3e03a8af	0.12857316
135	0x3ef33cf9	0.47507456
136	0x3efeb2d5	0.49745813
137	0xbdbe6d56	-0.09298198
138	0xbf1025c3	-0.5630762
139	0xbd9e2f01	-0.07723809
140	0xbe833405	-0.25625625
141	0xbf656efb	-0.8962247
142	0x3e45bbed	0.19309969
143	0x3d623141	0.055222753
144	0xbef47b2e	-0.4775023
145	0xbf11bbc0	-0.5692711
146	0xbee8d6ae	-0.45476288
147	0xbe9313c3	-0.28726014
148	0xbeb69184	-0.35657895
149	0xbf589f01	-0.8461762
150	0xbe069bbc	-0.13145345
151	0xbeeda15c	-0.4641217
152	0x3f58894b	0.8458449
153	0x3ee8d255	0.4547297
154	0x3f4d2031	0.80127245
155	0x3cb72950	0.022358567
156	0x3e7b27d0	0.24526906
157	0x3ef5bf62	0.47997576
158	0xbe5123f0	-0.20423865
159	0xbf00ae49	-0.5026594
160	0xbebce333	-0.3689209
161	0x3f1f5384	0.6223681
162	0x3e46a0a3	0.19397216
163	0x3f00a92e	0.5025815
164	0xbe7e9d01	-0.2486458
165	0x3e800a4d	0.2500786
166	0x3f53fd1f	0.8280811
167	0xbeb33c9c	-0.3500718
168	0xbd3ff435	-0.046863753
169	0x3d6c4155	0.057679493
170	0x3f47cea5	0.7804969
171	0x3f4bdef8	0.796371
172	0x3f351d0d	0.7074745
173	0x3f30c597	0.690515
174	0x3ec6be10	0.3881688
175	0x3d9e7c00	0.07738495
176	0xbe0b6ed5	-0.13616498
177	0xbf5f43c7	-0.87212795
178	0xbeaca877	-0.33722278
179	0xbe5d15f8	-0.21590412
180	0x3f1aedb8	0.6051898
181	0x3da5d749	0.08097703
182	0xbd90fbfd	-0.07079313
183	0xbdba921b	-0.09109899
184	0x3e93f5ac	0.2889837
185	0xbe95e22b	-0.29274115
186	0x3cedbbc3	0.029020196
187	0x3df1e662	0.1181152
188	0x3d69a75c	0.057044372
189	0xbe0fed9e	-0.14055488
190	0x3edbee3b	0.42955193
191	0x3f2bda07	0.6712956
192	0x3e8f808d	0.28027764
193	0x3d92b05e	0.071625456
194	0x3f71c52d	0.9444149
195	0x3d63968c	0.055563495
196	0x3f0a192f	0.5394468
197	0x3d540dd3	0.051770996
198	0x3ed1aead	0.4095358
199	0x3eddbfd4	0.43310416
200	0x3f0bff2a	0.54686224
201	0x3ef6eeeb	0.48229155
202	0x3f049d9c	0.5180299
203	0x3d65ef8b	0.05613665
204	0xbe86be4d	-0.26317063
205	0x3ee095c6	0.43864268
206	0xbec37397	-0.38174126
207	0x3e7a04da	0.24415913
208	0xbe845e98	-0.2585342
209	0x3dba1310	0.09085667
210	0x3e07f400	0.13276672
211	0x3e4c6860	0.19961691
212	0x3eef4a82	0.46736532
213	0x3dd88723	0.1057265
214	0x3e27ee6d	0.16399546
215	0xbebd2983	-0.36945733
216	0x3f256cc9	0.6461912
217	0x3e81eb9c	0.25375068
218	0x3e1986b9	0.14992799
219	0xbe99b0c3	-0.3001767
220	0xbe6a2c93	-0.22868566
221	0x3eaa3c29	0.33249024
222	0xbdfb615d	-0.1227443
223	0x3ea03918	0.3129356
224	0x3f154fb2	0.5832473
225	0x3f4adcb5	0.7924302
226	0xbe4541b0	-0.19263339
227	0xbc4b196e	-0.0123962
228	0xbe073ab6	-0.1320599
229	0xbf4673af	-0.7752027
230	0xbec78d24	-0.3897487
231	0xbf1fb8e0	-0.6239147
232	0x3de4d730	0.11173856
233	0xbeae414b	-0.3403419
234	0xbf10394f	-0.56337446
235	0x3ed9be62	0.42528063
236	0xbeaba86b	-0.3352693
237	0x3e7b823a	0.24561396
238	0xbe5b880c	-0.21438617
239	0xbe323c69	-0.17405857
240	0xbead62f1	-0.3386455
241	0xbd98eda0	-0.07467198
242	0xbf19d1b6	-0.6008562
243	0x3eacc8b7	0.33746883
244	0xbe7ec6a1	-0.24880458
245	0x3ea585cb	0.32328638
246	0xbe5e441a	-0.21705666
247	0xbf24188c	-0.64099956
248	0xbf109b8c	-0.56487346
249	0xbf393b82	-0.72356427
250	0xbf428eb0	-0.75998974
251	0xbf8bbf84	-1.0917821
252	0xbf9fd71f	-1.2487525
253	0xbf87428a	-1.0567181
254	0xbfa37bfd	-1.2772213
255	0xbf218360	-0.6309109

rnn.weight_hh_l0 f4 [16, 4]
0	0x3ebb0a52	0.3653131
1	0x3e9efdaf	0.3105292
2	0xbde1789d	-0.11009333
3	0xbdcfcf9f	-0.101470225
4	0x3e86584a	0.26239234
5	0x3ef03a73	0.46919593
6	0xbf6681e2	-0.90041935
7	0x3c2b2979	0.0104469
8	0xbeab67f7	-0.33477756
9	0xbf0c655d	-0.5484217
10	0xbf1bdfba	-0.60888255
11	0xbec7ca42	-0.39021498
12	0x3e91ca1e	0.28474516
13	0x3e1a77ea	0.15084806
14	0x3f0ecff8	0.55786085
15	0xbe888b0f	-0.26668593
16	0x3ee855d0	0.4537797
17	0x3d209e6d	0.039213587
18	0xbe7d48f1	-0.24734856
19	0xbefe1dfb	-0.49632248
20	0xbd01278c	-0.031531855
21	0x3ec9a43a	0.39383107
22	0xbf1bfdd7	-0.60934204
23	0xbec6feb2	-0.38866192
24	0xbd586a80	-0.05283594
25	0x3ef3bc94	0.4760481
26	0x3ea5b4d8	0.32364535
27	0x3e9b8871	0.30377534
28	0x3ef883dd	0.48538104
29	0xbe7f7e29	-0.2495047
30	0xbeaef162	-0.34168535
31	0x3f26fa4b	0.65225667
32	0x3ed32f31	0.41246942
33	0xbf31c8d8	-0.6944709
34	0x3d4ca6cf	0.04996377
35	0x3d4e9a00	0.050439835
36	0x3e869b13	0.26290187
37	0x3ee7588d	0.45184746
38	0x3ea0d9f5	0.31416288
39	0xbf39da9b	-0.7259919
40	0xbeb7e105	-0.35913864
41	0xbf12c7c9	-0.573361
42	0x3f16e87d	0.589485
43	0xbe9d9dd8	-0.30784488
44	0x3e772106	0.24133691
45	0x3da6ddf5	0.08147804
46	0x3e0d2d90	0.13786912
47	0x3dc0938f	0.094031446
48	0xbe0dd8bc	-0.13852209
49	0x3e1398b7	0.14413725
50	0x3d5f893d	0.05457424
51	0x3ee14f84	0.44005978
52	0xbf29be2f	-0.6630582
53	0xbea85998	-0.32880855
54	0xbe94595d	-0.2897443
55	0xbbdb7bf7	-0.0066981274
56	0x3e76f2c0	0.2411604
57	0x3e9f473a	0.3110903
58	0xbe72fe9d	-0.2372994
59	0x3f10c15a	0.5654503
60	0x3eb7519c	0.3580445
61	0xbe799412	-0.2437289
62	0x3e7ecb7f	0.24882315
63	0x3e33db30	0.17564082

rnn.bias_ih_l0 f4 [16]
0	0x3bea1823	0.0071439906
1	0x3c21ce15	0.009875794
2	0x3e863d02	0.2621842
3	0xbd7e7b7b	-0.06212948
4	0x3e900538	0.28128982
5	0x3f16edcf	0.5895662
6	0x3e868c76	0.26279038
7	0x3efb8042	0.4912129
8	0x3ef8607f	0.4851112
9	0xbc9dd67e	-0.019267317
10	0xbf1868ad	-0.5953472
11	0x3ea238f5	0.3168408
12	0x3f0bd2a9	0.54618317
13	0x3e90ad04	0.28257
14	0x3ddd5251	0.10806716
15	0xbe534def	-0.20635198

rnn.bias_hh_l0 f4 [16]
0	0xbdf39d1e	-0.11895202
1	0x3e7eae89	0.24871267
2	0x3e993fa6	0.29931372
3	0x3ee7ddaa	0.45286304
4	0xbe4c9c75	-0.19981559
5	0x3ef5054c	0.47855604
6	0xbe540789	-0.20706
7	0x3eae7962	0.34076983
8	0x3ec768b9	0.38947085
9	0x3e75213d	0.2393846
10	0x3df8fe87	0.12157922
11	0xbdb538e4	-0.08848742
12	0x3edc16f4	0.42986262
13	0xbdb62dc7	-0.0889545
14	0x3e9edfec	0.31030214
15	0x3e10c2bd	0.14136787

rnn.weight_ih_l1 f4 [16, 4]
0	0xbe0d4b08	-0.13798153
1	0x3e24dd19	0.16099967
2	0x3e0edbb8	0.13951004
3	0xbf361ea1	-0.71140486
4	0x3e879dff	0.2648773
5	0x3f0e467c	0.555763
6	0x3e57d07e	0.21075627
7	0x3e2dee74	0.16985494
8	0x3ed75db6	0.42063683
9	0x3eca27c5	0.39483467
10	0x3e49ed81	0.19719507
11	0xbef83768	-0.48479772
12	0xbe88b9f1	-0.26704362
13	0xbd331c70	-0.043728292
14	0xbef4f184	-0.47840512
15	0x3d2c2978	0.042031735
16	0x3e967705	0.2938768
17	0xbe02436c	-0.12721032
18	0xbeab4cf7	-0.33457157
19	0x3daab77b	0.08335777
20	0x3f15c047	0.58496517
21	0x3e5e0af1	0.21683861
22	0xbf26a6aa	-0.6509806
23	0x3d959951	0.073046334
24	0xbe4fd717	-0.20296894
25	0x3d8520ec	0.0650042
26	0xbeb223dd	-0.34792987
27	0xbf0a75ff	-0.540863
28	0xbe2830ad	-0.16424818
29	0x3f2be776	0.67150056
30	0xbd8e9041	-0.06961108
31	0xbef40172	-0.47657353
32	0x3edcf78e	0.4315762
33	0xbe8cd353	-0.27504978
34	0xbeff404b	-0.4985374
35	0xbec92729	-0.3928769
36	0xbf2e0737	-0.6797976
37	0xbf4db07f	-0.80347437
38	0x3f20dd7a	0.62837946
39	0x3e068d89	0.13139929
40	0x3f25ea5c	0.6481073
41	0x3f86ff1e	1.0546606
42	0x3e22d610	0.15901971
43	0xbf806613	-1.003115
44	0x3e45b5e9	0.19307674
45	0xbf6cce3d	-0.92502195
46	0xbebf59d3	-0.37373218
47	0xbd5fc1e7	-0.05462828
48	0x3ec5b1f7	0.3861234
49	0x3f5fb745	0.8738902
50	0x3d7bd394	0.061481073
51	0xbf322941	-0.695942
52	0xbdef137a	-0.11673637
53	0x3f732441	0.94977194
54	0xbf3079e1	-0.6893597
55	0xbecd81e9	-0.40138176
56	0x3f4630cd	0.77418214
57	0x3f843c32	1.033087
58	0x3f0ed5ff	0.5579528
59	0xbedf9a90	-0.4367261
60	0xbf5d8368	-0.86528635
61	0xbf9772a5	-1.1831862
62	0x3ec40138	0.3828218
63	0x3fa5c193	1.2949699

rnn.weight_hh_l1 f4 [16, 4]
0	0x3ef839bf	0.48481557
1	0xbcf3e737	-0.029773338
2	0xbe9f1448	-0.3107016
3	0xbea2b4b5	-0.31778494
4	0xbed18f39	-0.40929583
5	0xbe8c8002	-0.27441412
6	0xbc1ad531	-0.009450243
7	0x3d837cac	0.06420264
8	0x3f1f9d88	0.6234975
9	0x3db2b031	0.08725012
10	0x3f09609e	0.5366305
11	0x3e65653d	0.224019
12	0x3f010e28	0.50412226
13	0xbd6124ca	-0.054966725
14	0x3eb1e94b	0.347483
15	0xbeb54b20	-0.35408878
16	0xbc8fdc1b	-0.01756101
17	0x3e34fc67	0.17674409
18	0xbd671a9a	-0.056421854
19	0x3e878f76	0.2647664
20	0xbd36647a	-0.044529416
21	0x3cd3df4d	0.025863314
22	0xbec6649a	-0.38748628
23	0x3efac35f	0.4897718
24	0x3e353cca	0.1769897
25	0xbed2d183	-0.4117547
26	0xbebf134f	-0.3731942
27	0xbd2fab5f	-0.04288804
28	0x3efec08a	0.4975627
29	0xbdd487d9	-0.103774734
30	0x3f3defee	0.7419423
31	0xbdf07907	-0.11741834
32	0x3d83cc02	0.06435396
33	0xbe99d1e0	-0.30042934
34	0xbefffc5d	-0.49997225
35	0xbe309090	-0.17242646
36	0xbeaca0bb	-0.33716378
37	0xbed990dd	-0.42493334
38	0xbdc75728	-0.097334206
39	0x3ef50c19	0.47860792
40	0x3e615a2b	0.22007053
41	0x3f3255df	0.6966228
42	0xbf50a79e	-0.81505764
43	0xbe009dfa	-0.12560263
44	0xbed08d49	-0.40732792
45	0x3f1e79a2	0.61904347
46	0xbf2a9d4c	-0.66646266
47	0x3e2b26a8	0.16713965
48	0x3e97c824	0.29644883
49	0xbe1b94d9	-0.151935
50	0x3e8bc6c9	0.273001
51	0x3dadcd45	0.08486418
52	0x3f0b1ace	0.54337776
53	0xbec5c183	-0.386242
54	0x3ec2d8bb	0.38055977
55	0xbe31d7d9	-0.17367496
56	0x3e56b08e	0.20965788
57	0xbee2e25c	-0.44313323
58	0x3e885f23	0.26635084
59	0x3ea056da	0.31316262
60	0xbe67e874	-0.22647268
61	0x3f4944cb	0.78620595
62	0xbf0f0afe	-0.5587615
63	0xbc5019af	-0.012701436

rnn.bias_ih_l1 f4 [16]
0	0x3f1872ec	0.59550357
1	0x3f2011d5	0.6252721
2	0x3f68ca99	0.9093414
3	0x3dc08a4e	0.094013795
4	0x3e977df3	0.2958828
5	0x3d920ac4	0.0713096
6	0x3e469170	0.19391418
7	0x3edcf474	0.43155253
8	0x3ef7260a	0.4827121
9	0xbd4b1c99	-0.04958782
10	0xbe8c1b39	-0.2736452
11	0xbedc3a7b	-0.43013367
12	0xbec2cb75	-0.3804585
13	0x3dc465e8	0.095897496
14	0x3dcd2560	0.10016894
15	0x3deb5ef9	0.11492724

rnn.bias_hh_l1 f4 [16]
0	0x3f0e5e3f	0.5561256
1	0xbdb4cadb	-0.08827754
2	0x3c186916	0.009302398
3	0x3ce51817	0.027965588
4	0xbc38786c	-0.01125918
5	0xbeaed002	-0.34143072
6	0xbec4120b	-0.38295016
7	0x3f153273	0.58280104
8	0xbe8d5fe1	-0.27612212
9	0xbdb1edd2	-0.08687939
10	0x3e7d78de	0.24753138
11	0x3c7d691b	0.015466954
12	0x3e0bbd54	0.13646442
13	0xbe588382	-0.21143916
14	0x3eea80d3	0.4580141
15	0x3e804f10	0.2506032

reg.weight f4 [1, 4]
0	0xbeb82917	-0.3596885
1	0x3ecf23f4	0.40457118
2	0xbf2ac092	-0.6670009
3	0xbde8f16c	-0.113741726
