predict_synoptic_map/LSTM/one2one/best_model.pkl (torch, 17259 bytes, 17 tensors)

lstm.weight_ih_l0 f4 [16, 150]
000000 67 a4 eb 3d 25 24 0f bf 09 61 3d 3e 57 b6 74 3e
       0.11505967 -0.5591453 0.18494047 0.23897682
000010 dd b9 76 3d 9d 8a 08 3e 87 99 dd 3e 24 56 0c bf
       0.060235847 0.13334127 0.43281195 -0.5481894
000020 9c 16 c6 be 3c 1e 2c 3d 35 01 d6 3d ef b7 ae 3e
       -0.38689125 0.04202102 0.10449449 0.34124705
000030 f0 eb 45 3e c1 77 f8 be a7 4e 5e be 5e f3 68 be
       0.19328284 -0.48528865 -0.21709691 -0.22749087
000040 80 f5 3c be 6a 7d d1 be 03 47 c2 bd 45 17 1f 3d
       -0.18453026 -0.40915996 -0.09486201 0.03884055
000050 cb 2b fa 3b 8a c3 a1 3e 79 4b df 3d 24 8d a3 bd
       0.007634615 0.31594497 0.10903067 -0.07985905
000060 16 3a fd bd 23 31 09 bd 7b ae d4 bd 53 e7 05 3d
       -0.12364595 -0.033494126 -0.10384842 0.03269131
000070 6c 02 8f 3e 3f db f3 be 1e 4c ea be 1c 38 a1 3e
       0.27931535 -0.4762821 -0.45761198 0.3148812
000080 60 96 f3 3e 0c 23 b3 3e 12 21 02 be aa a6 6a 3e
       0.47575665 0.34987676 -0.12707928 0.2291514
000090 8a 0c 77 be d8 54 a9 3e 8a c3 26 be 79 bb 73 3e
       -0.24125877 0.33072543 -0.1628553 0.23801984
0000a0 4e 6d ae bd 9e 71 48 be 85 55 14 be 32 68 02 3f
       -0.08516942 -0.19574592 -0.14485748 0.5094024
0000b0 eb 47 79 be e1 cf c0 3d 36 f7 91 be bf e7 02 3f
       -0.24343841 0.0941465 -0.2850892 0.51134866
0000c0 68 5f 4b be 2c 60 0b 3f 0b da 4c 3c 78 44 1c 3e
       -0.19860613 0.5444362 0.012503157 0.15260494
0000d0 74 04 11 3f f2 a9 02 3f 12 f4 49 3d 6b 8d 09 bd
       0.5664742 0.51040566 0.04930503 -0.033582132
0000e0 f2 53 e1 bd dc 67 08 be da 46 da 3d 5f d2 46 3e
       -0.110023394 -0.13320869 0.10658045 0.19416188
0000f0 81 c4 a4 3e 5f fb 1e 3f 88 78 6b be 2a 41 db 3c
       0.3218117 0.6210231 -0.22995198 0.026764471
000100 1c b1 bf 3e ca a6 78 be f3 4b 95 3e b7 55 0f 3e
       0.3743981 -0.24282375 0.29159507 0.13997541
000110 f0 6a 04 be 6b 8b 6f be 56 dc 11 3f c9 fb 2c 3e
       -0.12931418 -0.23393027 0.5697683 0.16892923
000120 03 23 e5 3e e7 76 95 be b8 4b 4b 3e e2 85 27 be
       0.44753274 -0.29192278 0.19853103 -0.16359666
000130 09 d3 98 be f9 0a e9 bd 66 53 c2 3e b5 c7 11 3f
       -0.29848507 -0.11379046 0.37954253 0.56945354
000140 6d 1a 66 3e b5 4b 60 be 28 de f1 bd c7 cd 0d 3f
       0.22471018 -0.2190388 -0.11809951 0.55392116
000150 a9 aa 8b bd 09 e2 51 be 59 6b 6a 3d 3c fa dd bd
       -0.0681966 -0.20496382 0.05723128 -0.10838744
000160 2a e8 48 3e 61 69 0d 3e 09 3d 84 be 0c 4d 52 be
       0.19619814 0.1380973 -0.25827816 -0.20537204
000170 40 0a 05 3f 12 5b 0b 3f ca 39 02 be 57 b8 25 3d
       0.51968765 0.5443584 -0.12717357 0.040459003
000180 a1 d8 f6 3e 6c e0 ac be 9f 31 87 3e 4c f4 b0 3d
       0.4821215 -0.3376497 0.26405045 0.08640346
000190 50 e1 c4 3e 0b 54 02 3f da 06 0a 3f a6 56 e1 3e
       0.3845315 0.5090949 0.53916705 0.4401142
0001a0 a6 c2 b9 3e 1d fa ab be bb cb b6 3e 99 7a 3a 3e
       0.36281317 -0.3358926 0.3570231 0.1821083
0001b0 94 91 90 3e ea bc a2 3d f0 08 b0 3c 6b 78 a2 be
       0.28236067 0.07946189 0.021488637 -0.31732497
0001c0 dd 41 3b be cf 68 2e bd fc 83 31 3c 34 ad b5 3e
       -0.18286844 -0.042580422 0.01083469 0.35483706
0001d0 d2 3f 87 3e 44 4b 5f bc 4f d1 f0 bc 9f 2d 57 3e
       0.2641588 -0.013628785 -0.029396681 0.21013497
0001e0 0c 69 ba bd 03 2d 5c be 41 53 8a be f8 35 19 3d
       -0.09102067 -0.21501546 -0.27016643 0.037404984
0001f0 31 37 f1 3e 41 50 e1 be cd ae 84 3e 60 c7 df b9
       0.4711242 -0.4400654 0.25914612 -0.0004268242
000200 6e 94 52 3e 11 a2 c6 be 5d c8 6e be e7 06 ce be
       0.20564434 -0.38795522 -0.2331862 -0.4023964
000210 73 e6 8c 3c 5a 54 36 be 22 34 93 bc 15 02 f3 3e
       0.01719973 -0.17805615 -0.017969195 0.47462526
000220 5d 61 5a 3c b8 eb 1e bd 83 57 e5 bd a1 a5 a6 3e
       0.013328877 -0.038799018 -0.11198332 0.3254824
000230 71 37 fa 3e 46 2a 20 3d 28 a6 99 3c 3d 78 4b bd
       0.48870423 0.039102815 0.018755987 -0.049675215
000240 89 71 98 bd e6 27 97 3e e0 76 2b 3e fa b9 97 be
       -0.0744353 0.29522628 0.16744566 -0.29634076
000250 85 a7 61 3e d6 25 2b 3e 78 eb fb be c9 68 7d be
       0.2203656 0.16713652 -0.49203086 -0.24747004
000260 53 c8 de 3c 1e 19 2f 3e 1a f5 6d be b7 fd d9 be
       0.027195131 0.17099425 -0.2323803 -0.42576382
000270 9a fb ba 3e 60 4e 8b be 90 d0 ca be e9 12 10 be
       0.36520082 -0.27208233 -0.39612246 -0.14069714
000280 46 3a 5f 3e a5 b3 92 be f5 3a 5e 3e 47 70 11 bf
       0.21799573 -0.28652683 0.21702178 -0.56811947
000290 61 41 a9 3e b8 24 f6 be 8c 20 94 3e d1 fa 5e 3e
       0.33057693 -0.4807489 0.2893108 0.21775366
0002a0 e1 43 b7 be fa 4f a7 be 95 47 6b bd 83 38 20 3e
       -0.35793975 -0.32678205 -0.057441313 0.15646558
0002b0 d8 e5 5b bd 4b 55 2a be 35 82 f4 bd 47 b1 ce bd
       -0.053685993 -0.16634099 -0.119388975 -0.10092407
0002c0 a9 25 4a 3d 35 dc ff bd 6b 96 f7 be 90 0c 32 be
       0.04935232 -0.12493173 -0.48356947 -0.17387605
0002d0 c8 f4 23 3e c1 34 f9 be e5 05 50 3e ba 15 2d be
       0.16011345 -0.4867306 0.20314749 -0.1690282
0002e0 ca 1b 7c 3e fc 46 1a be 7a c0 17 3e 97 d6 7a bd
       0.24619976 -0.15066141 0.14819518 -0.061239805
0002f0 b8 25 cc be bc e0 0a 3e d8 56 f1 be 93 b1 d6 be
       -0.39872527 0.13562292 -0.4713657 -0.41932353
000300 90 2b 7f be 53 b3 f6 be 24 03 4f be ef 36 9b 3d
       -0.24918962 -0.4818369 -0.20216042 0.07578837
000310 8d cd 9e be 69 88 7a 3e 68 2e 75 3e 79 8e ad be
       -0.31016198 0.24466099 0.23943484 -0.3389776
000320 4b f2 03 bf 9f 86 47 3d db 3a ff be ee 28 e7 be
       -0.51541585 0.04871237 -0.4984959 -0.45148414
000330 2e 51 f7 bd 3c 55 67 be 04 09 52 be fb ba 21 bd
       -0.12076031 -0.22591108 -0.20511252 -0.03948496
000340 9e 65 83 3e c2 ca 7a 3e 20 57 72 3e 94 dc 1c be
       0.25663465 0.24491408 0.23666048 -0.15318519
000350 c1 16 7c bb d9 40 a9 be 4e 6b e7 be 63 0a c8 3d
       -0.003846571 -0.33057287 -0.45199054 0.09767606
000360 89 44 ef 3c 26 76 85 bd 0a e9 1e 3d 7e 86 c0 3e
       0.029207485 -0.06516676 0.038796462 0.3760261
000370 a4 2a f3 be 25 70 35 3d 04 77 05 bf 7f b5 4c 3e
       -0.4749347 0.044296402 -0.5213473 0.1999111
000380 62 80 0f bf 0d 2c 9c 3e c2 61 49 3e 22 6d e7 be
       -0.5605527 0.30502358 0.19666198 -0.4520045
000390 33 30 22 be 94 cc 4d 3e 59 61 e5 be b6 1f c8 be
       -0.15838699 0.20097572 -0.44800833 -0.39086694
0003a0 35 68 53 bc d7 69 52 3e d6 16 dd be 62 76 73 be
       -0.012903263 0.20548187 -0.43181485 -0.23775628
0003b0 e4 ef 0e bf bc 8e 80 3e 52 a2 be 3e 7a 6f 32 3e
       -0.55834794 0.25108898 0.37233216 0.17425337
0003c0 5c c4 9a be 7d fd 8d be d1 43 84 be d8 3b 8c be
       -0.30227935 -0.2773246 -0.2583299 -0.27389407
0003d0 49 cf 68 3e 19 b1 5c 3d 23 92 15 bf 0f e8 b4 be
       0.22735323 0.05387983 -0.5842611 -0.35333297
0003e0 b5 03 bb 3e 15 ea 2f be b5 32 b8 be 87 d1 9c be
       0.36526266 -0.17179139 -0.35976186 -0.30628607
0003f0 6f 2b 20 3e a6 6d b1 3e 9b ca b6 be 28 d0 b4 be
       0.15641569 0.34653968 -0.3570145 -0.3531506

lstm.weight_hh_l0 f4 [16, 4]
000000 15 10 b1 3e ea ad 22 be 07 a0 ae 3e bc 0d 82 be
       0.34582582 -0.15886655 0.34106466 -0.25401103
000010 d7 ef 62 bd ff 57 55 3e 07 02 8a 3d 7d 26 29 3d
       -0.05540451 0.20834349 0.06738668 0.04129647
000020 64 67 69 3e 60 7b 48 3e 06 c5 fa 3e 4e f3 f5 bd
       0.22793347 0.19578314 0.48978442 -0.12009297
000030 5f be 17 bf 8d 0c 89 3e 94 bb 66 3e a6 00 0a 3e
       -0.5927486 0.26767388 0.22532493 0.1347681
000040 d2 e2 30 be 05 28 88 bd fe 2a 06 bf cd 70 b3 be
       -0.17274025 -0.06648258 -0.5240935 -0.35046998
000050 13 e4 9f be a3 b2 f4 be b2 0b d7 3d 61 c5 2e be
       -0.31228694 -0.4779254 0.105002776 -0.17067482
000060 b8 68 82 be a3 64 26 3f b9 b0 36 bd dd 15 08 3f
       -0.2547052 0.6499731 -0.04460213 0.5315836
000070 58 5b db 3e 52 b5 73 3e 3e c2 0a bf 16 23 a8 be
       0.42843127 0.23799637 -0.5420264 -0.32839268
000080 1f c7 37 be 54 fb ad 3c ed 5d f0 3e 93 aa 1c 3d
       -0.17947052 0.021238007 0.4694666 0.03824861
000090 b3 9c fc be 6e 01 1b bd 1f 16 b6 be cf 8b 72 3e
       -0.49338302 -0.03784316 -0.35563752 0.23686145
0000a0 4b de b0 bd 4b 6e 05 3e 6e fe 88 3c 42 d5 31 3c
       -0.08636149 0.13030355 0.016722884 0.010854067
0000b0 16 9f af 3e f5 ae 23 3e b1 b0 7a bd 82 88 80 3e
       0.3430106 0.1598471 -0.061203662 0.25104147
0000c0 77 a7 b9 be ca a3 9a 3d 7d 9a 5b 3e fa c1 fc 3e
       -0.36260578 0.075507715 0.21445651 0.49366742
0000d0 6c 75 d6 be b7 76 9a 3e 9e c0 08 3f 2b 4f a7 bd
       -0.4188646 0.30168697 0.5341891 -0.08169397
0000e0 62 14 6a 3e 3d 3c f5 3e 66 74 d9 3e 0c 3e 91 3e
       0.22859338 0.4789752 0.42471617 0.2836765
0000f0 82 4c 0a bf ef 80 d2 3e 77 25 61 be 45 81 0a bf
       -0.5402299 0.41113994 -0.21986948 -0.541035

lstm.bias_ih_l0 f4 [16]
000000 c0 07 a0 be 8f 0a 66 3e 7d 74 b8 be 8f 41 4c 3e
       -0.31255913 0.22464965 -0.36026374 0.19946884
000010 8b a6 97 3e 5d 26 ec be 00 30 b0 bd a0 c0 56 be
       0.2961925 -0.4612302 -0.08602905 -0.20971918
000020 25 b0 f4 3e 7d e1 9c 3d 3f 69 1d 3f da 5b 6f 3e
       0.47790638 0.07660196 0.6148872 0.23374882
000030 49 e0 11 3d cf 34 06 3f 1b dc 00 bf 06 b2 9e 3d
       0.035614286 0.5242433 -0.50335854 0.07748799

lstm.bias_hh_l0 f4 [16]
000000 8a 25 bd bc ce 95 16 bf d5 78 e5 3e 33 c7 4a 3e
       -0.02308919 -0.58822334 0.4481875 0.19802551
000010 95 13 81 3e 13 26 9d be e9 06 e9 be 00 a2 fb 3e
       0.25210252 -0.3069311 -0.45513085 0.49147034
000020 83 e2 96 3e 62 ce 9f be 48 51 95 3e 9f a9 e4 3d
       0.2946969 -0.31212145 0.29163575 0.11165165
000030 c4 31 5b 3e ed 4f b7 3e a6 e3 2f 3e d9 fc 3a be
       0.21405703 0.35803166 0.17176685 -0.18260516

lstm.weight_ih_l1 f4 [16, 4]
000000 59 1a 8e be 0c b9 de 3c fe 1b 92 3e c7 1c 91 bd
       -0.27754477 0.027187847 0.2853698 -0.07085567
000010 0d 1a 90 be ff 21 9e 3e 7b d8 8a 3e ba 3d 16 bf
       -0.28144875 0.30885312 0.27118286 -0.5868794
000020 47 ca 01 bd 7d 77 2c bc 2a 2b 44 3e 5e 91 73 3d
       -0.031687047 -0.010526535 0.19157091 0.059464805
000030 0f 0b f0 3e 97 15 e7 3e 5e 10 4c 3d 25 b6 16 bf
       0.46883437 0.4513366 0.049820296 -0.5887168
000040 c3 87 17 be 73 8a 27 be b0 43 8a 3e 18 c4 d9 3d
       -0.14797883 -0.16361408 0.27004766 0.10633105
000050 ee bd 10 3f 11 ef da 3e d5 49 1e be 71 a3 f1 be
       0.5653981 0.42760518 -0.15457852 -0.47195008
000060 5e 2d a1 be 94 b3 0c 3e 6b de 5f bd 91 17 ce be
       -0.31479925 0.13740379 -0.054655474 -0.40252355
000070 fd 0a 12 3d ac e5 55 be 56 07 80 3d 5c 99 ca be
       0.03565501 -0.20888394 0.06251399 -0.3957013
000080 61 38 b6 be ab 79 97 3d f8 99 06 bf 6b f0 6e 3e
       -0.3558989 0.07396253 -0.5257869 0.233339
000090 bf 96 f5 3d b7 50 a2 be 1c 85 d6 3e 76 f4 30 bf
       0.11991643 -0.31702206 0.4189843 -0.6912302
0000a0 d2 14 53 be 05 21 a8 3d 0d d1 c8 3e fb 8e 2b bf
       -0.20613411 0.08209423 0.39221993 -0.67015046
0000b0 f0 da dd 3e 5e 75 0c bf 46 d4 67 be 5e 92 3e 3f
       0.433311 -0.5486659 -0.2263957 0.7444209
0000c0 c7 13 61 be 53 74 1b bf 5c 20 77 3c 21 6c 39 3f
       -0.219802 -0.6072437 0.015083399 0.72430617
0000d0 ca 77 2e be fa d7 e9 3e 27 d2 29 3f 7f 5f 68 be
       -0.17037883 0.4567259 0.6633629 -0.22692679
0000e0 7d f4 c2 3d 63 86 78 3e a6 11 11 3f 4e c2 6d be
       0.09519289 0.24270014 0.56667554 -0.23218653
0000f0 89 8b 01 3f 85 d4 34 3f c3 16 fa 3e 48 ca 01 bf
       0.5060354 0.7063678 0.4884549 -0.5069928

lstm.weight_hh_l1 f4 [16, 4]
000000 82 e5 d1 3d 7a ce 04 3d 4d b4 17 bf 67 dd b8 3e
       0.10248853 0.032423474 -0.5925949 0.36106417
000010 1e 17 f6 3d 63 a5 87 3d e2 5e 15 3f 77 59 16 3f
       0.12016128 0.06623342 0.58347905 0.5873026
000020 a0 c6 8b be 9e b2 3b 3d 37 83 0f be a6 43 40 3e
       -0.27299976 0.04582464 -0.14014898 0.18775806
000030 68 02 ec be f2 e2 5b be 1b 00 f9 3e 5c 85 97 3e
       -0.46095586 -0.21473292 0.48632893 0.29593933
000040 df 89 9a be 44 cf 38 bf 8c 68 99 3e 5c ee 5d 3e
       -0.30183312 -0.7219126 0.29962575 0.21672958
000050 07 16 09 3d 07 a2 20 be 24 13 09 bd 5a 6d 27 bd
       0.033468273 -0.15686809 -0.03346552 -0.04087577
000060 71 8e a5 bc e4 ec 21 3f 52 08 05 3f c7 c1 06 3e
       -0.020209523 0.6325209 0.5196582 0.13159858
000070 f6 df 46 3d 58 19 ff be da 7d 37 3d 81 33 9c be
       0.04855343 -0.49824023 0.044797756 -0.30508044
000080 30 49 9b 3e bf ed 7b bd c6 0b 08 3f b0 c2 9c be
       0.30329275 -0.06150603 0.53142965 -0.30617285
000090 17 0f 00 3f 9c 64 99 3e e1 14 c9 3e b3 fc 9a be
       0.50023025 0.2995957 0.39273742 -0.3027092
0000a0 53 82 7e 3e d8 ac 93 be fb 47 19 be 38 06 58 be
       0.24854402 -0.28842807 -0.14968865 -0.21096122
0000b0 53 42 0e 3e 4e 2f c9 be af fe 1b bf 46 60 cd 3e
       0.13892488 -0.39293903 -0.6093549 0.40112513
0000c0 ca 2d b7 be 4c 5b e4 be 27 bd 15 bd 5c 5b 0f 3e
       -0.35777122 -0.44600904 -0.036557343 0.13999695
0000d0 e4 f2 1d bf df 24 3b 3e 98 eb 92 3d 5f 6e 0e 3e
       -0.61698747 0.18275784 0.07173842 0.1390929
0000e0 61 62 8b be 61 a6 1e 3f 48 1f d2 3e 6d a7 d7 be
       -0.27223495 0.61972624 0.4103949 -0.42119923
0000f0 01 4c 45 bf 4b 14 1a be b6 b3 06 3f 98 68 92 3e
       -0.770691 -0.15046804 0.5261797 0.28595424

lstm.bias_ih_l1 f4 [16]
000000 14 4c 16 3f 02 d2 58 3f 89 cf d6 3e 29 03 36 3f
       0.58709836 0.84695446 0.41955212 0.7109857
000010 a7 de 20 3e 85 f9 39 3e ec 16 5a 3e 92 35 ca 3d
       0.15709935 0.1816159 0.21297807 0.09873499
000020 e1 c8 26 bf 7a d2 37 3d 7c f0 d1 3e c8 3c ea 3e
       -0.65150267 0.04487846 0.41003788 0.45749497
000030 ba be 9d bd 5e 3a a9 3e 12 8f c2 bc c1 64 e5 3e
       -0.07702394 0.33052343 -0.023749862 0.44803432

lstm.bias_hh_l1 f4 [16]
000000 2e 40 7b 3d 0f 67 07 3f 7e 3a a1 bd 70 d0 32 3f
       0.061340503 0.5289163 -0.078724846 0.698493
000010 aa 27 43 3f 93 eb 51 3f 4f c0 f3 3e 04 8d 3b 3f
       0.762324 0.8200008 0.47607657 0.7326205
000020 5b a8 05 bf 1c fd 79 be 3a 15 b1 be ea b4 b0 bd
       -0.52210015 -0.2441296 -0.34586507 -0.086282566
000030 57 06 a1 3b 81 0d c4 bd 70 4d 09 3e cc 96 87 3e
       0.004914086 -0.09572888 0.13408446 0.26482236

lstm.weight_ih_l2 f4 [16, 4]
000000 66 87 f8 be f1 d7 25 3f a6 73 1c 3d 70 ba 5e be
       -0.485408 0.64782625 0.03819623 -0.21750808
000010 bb ba da be 04 40 e0 3e 3a 40 07 3f ba 67 94 3e
       -0.4272059 0.4379884 0.52832377 0.28985387
000020 da 1c ca 3d 6b 65 20 bf c5 3e 1d bf c1 05 f9 3e
       0.09868784 -0.6265475 -0.61423904 0.48637202
000030 39 71 7b bd c6 d1 a8 3e 7c 32 95 3e b6 52 7a be
       -0.061387274 0.32972544 0.2914008 -0.24445614
000040 d3 7d dc be 3b 1b a5 3e e4 13 d3 3e d3 dc 96 be
       -0.43064746 0.32247338 0.41226113 -0.2946535
000050 cf f8 16 3e 6e dd 16 3e c1 c4 68 be 7e 54 d2 be
       0.1474335 0.14732906 -0.22731306 -0.41080087
000060 f0 be 8d be 97 48 90 3d 6a 0c 2b be 6f 21 2e 3f
       -0.27684736 0.070450954 -0.16703954 0.68019766
000070 0c 96 8d bd 89 bc 8e bd 6f aa bf 3d 8a e0 d0 be
       -0.06913385 -0.06969554 0.093586795 -0.4079631
000080 d8 81 0f 3e 7e de 1c 3f 3a 76 15 be fb a7 fd be
       0.14014375 0.61276996 -0.14595881 -0.4954222
000090 73 aa 35 be c7 64 c6 be 68 c3 07 bc 33 30 7c be
       -0.17740802 -0.38748762 -0.008286335 -0.24627762
0000a0 b0 69 97 3d 28 7d 39 be 8f 52 5b be 4e de 0d 3f
       0.07393205 -0.1811415 -0.21418212 0.55417335
0000b0 df 21 23 3f 7e 37 d6 3e 32 4b 36 3f 4e 67 1d bf
       0.6372356 0.41839212 0.7120849 -0.61485755
0000c0 33 6f 4b 3e 36 a7 8e 3d e0 1e 27 3f 9c b2 52 3e
       0.19866638 0.06965487 0.65281487 0.20575947
0000d0 21 2a 9b 3e 32 f5 da 3e 26 4b 31 3f 54 99 fc 3e
       0.3030558 0.42765194 0.6925529 0.4933573
0000e0 9d 16 f6 3d 3d 25 3d bf ab 14 39 bf 4d e5 33 3f
       0.12016032 -0.73884946 -0.7229716 0.7027176
0000f0 9b 7d 15 bf 22 07 81 3e de 52 15 bd 38 43 42 bf
       -0.58394784 0.25200754 -0.03645598 -0.7588382

lstm.weight_hh_l2 f4 [16, 4]
000000 6f 40 b0 bd 27 e2 7e 3d 73 ad 8f be c9 51 dd 3e
       -0.0860604 0.062227394 -0.2806202 0.4322646
000010 f5 98 00 bf 1a 7c fb b9 ff 5f 03 3f d0 01 0c bf
       -0.50233394 -0.00047966914 0.51318353 -0.54690266
000020 15 a9 10 bf b6 45 12 be b1 66 78 3d 8c 29 08 bf
       -0.56508 -0.14284405 0.06064481 -0.53188396
000030 24 c8 5f 3e 4f 17 d9 be 00 ce 93 bd 2d 35 58 3e
       0.21853691 -0.42400596 -0.07217026 0.21114035
000040 dd c8 e9 3e 42 f9 ed 3d b3 4e 84 bd 27 fb 9a 3e
       0.4566106 0.11619808 -0.06460323 0.3026974
000050 92 b9 85 3e b8 3a 70 3e c7 fb 8f 3e 2d 1b 65 3d
       0.2611814 0.234599 0.28121778 0.05593412
000060 e9 28 08 bf 7d d6 21 3e 3a 82 92 bd c3 19 f7 3d
       -0.53187424 0.15804477 -0.07153745 0.120654605
000070 7f 31 63 3d 2d 8d e4 be 0e 8c 5b 3e 20 ca 54 be
       0.055467125 -0.4463896 0.21440145 -0.2078023
000080 6c 5a 10 3f d0 6d 1d be 06 b7 de 3d 27 44 16 be
       0.5638797 -0.15373921 0.10874753 -0.14674436
000090 50 af 6e be 7d d8 f4 3e 2d a4 09 bf e5 e8 57 3e
       -0.23309064 0.47821417 -0.5376614 0.21084936
0000a0 28 18 09 bf fb 2b e9 be 92 e3 bd bd 1b 1f 76 3e
       -0.53552485 -0.45541367 -0.09271921 0.24035303
0000b0 79 42 45 be f2 ad 10 bd 3a 45 5f be 7a fc d6 be
       -0.19263639 -0.035322137 -0.21803752 -0.419895
0000c0 76 46 c8 bd 51 3d fc be 8c ba 16 3f 80 71 00 b9
       -0.09779064 -0.4926553 0.588784 -0.00012249313
0000d0 43 77 eb bd 73 21 3e be 6c c8 ba 3e ae 27 9a 3e
       -0.11497357 -0.18567447 0.36481035 0.30108398
0000e0 91 e6 0a 3e 03 15 18 bf c7 1a 25 3e e5 63 8e 3d
       0.13564517 -0.5940706 0.16123496 0.06952647
0000f0 f0 ae 99 3e 98 a2 c7 be aa a4 ac bc e6 27 a0 be
       0.3001628 -0.38991237 -0.021074612 -0.3128044

lstm.bias_ih_l2 f4 [16]
000000 6d 5c 24 3f fe a7 40 3d 35 dd d0 3e 1d 0c c8 bc
       0.6420353 0.04703521 0.40793768 -0.024419839
000010 85 f6 16 be f5 34 d9 be 8a bf f7 3e 35 66 fd 3d
       -0.14742477 -0.42423216 0.4838832 0.1237301
000020 70 31 6d 3d 46 2c b2 be a0 a5 db 3e a8 80 16 3e
       0.057908475 -0.34799403 0.428998 0.14697516
000030 b4 c5 15 be d1 c5 eb bd ff 90 0a 3f aa e0 9a 3d
       -0.14626199 -0.1151234 0.54127496 0.075623825

lstm.bias_hh_l2 f4 [16]
000000 b0 20 f8 3d 47 a9 9b be 52 52 70 be 98 1b f5 3b
       0.1211561 -0.30402586 -0.23468903 0.007480096
000010 51 f8 a2 be 9b e0 c5 be 3f d4 5d 3e 00 91 cc 3e
       -0.31830075 -0.38647923 0.21662997 0.39954376
000020 52 1b 11 3e 67 4e c0 be ba b9 38 be 17 26 c4 3e
       0.14170578 -0.37559816 -0.18039599 0.3831031
000030 2b 8c d5 3c dd c9 d9 be d7 b8 b2 3e b3 14 df 3e
       0.026067814 -0.42536822 0.34906647 0.4357048

lstm.weight_ih_l3 f4 [16, 4]
000000 c7 1e 12 bf e3 13 8a 3e 4a 91 24 3f 4e 54 04 3e
       -0.5707821 0.26968297 0.64284194 0.12922785
000010 64 3a a0 be de 21 0d 3d 6e f8 3e 3f 17 7e 6d 3e
       -0.3129455 0.034456126 0.74597824 0.2319263
000020 5b 76 8a bd 53 fc d0 bd 4b ac 0b 3e 97 e2 93 3e
       -0.06760856 -0.10204377 0.13639943 0.28883812
000030 2f 46 a4 3d 29 ed df 3e f7 ee 29 3e a0 20 15 3d
       0.08021199 0.43735626 0.16595064 0.036408067
000040 e4 0b 95 3d a7 a0 8e 3e c1 2e 4a 3e 9d 29 e3 be
       0.072776586 0.27856943 0.19744398 -0.44367686
000050 1a 07 13 be 60 8b 02 bf 32 82 65 bc 2f c8 98 bc
       -0.14358178 -0.5099392 -0.014008092 -0.018650142
000060 89 41 e9 be 92 2d 28 3e 37 02 6b bd f9 97 42 be
       -0.45557812 0.16423634 -0.05737516 -0.19003285
000070 2c ff e5 3b da 73 5d bd b8 4d 1f 3e e0 0e 14 bf
       0.0070189442 -0.054065563 0.15556991 -0.578352
000080 75 8e 16 3f 31 92 5b 3e d8 19 6c 3c 87 24 ff 3e
       0.5881112 0.21442486 0.0144104585 0.49832556
000090 24 0e c7 be 8f 62 4a be 1c 06 21 3f 54 21 d3 3d
       -0.38877976 -0.1976416 0.6289995 0.10309091
0000a0 e4 d3 07 bf f1 2e f6 3d b6 a3 16 3f 01 e7 ff be
       -0.53057694 0.12020672 0.58843553 -0.4998093
0000b0 dc 0f 23 3e 85 9f 6d be a7 bf 57 3e 85 db 16 3e
       0.15924019 -0.23205383 0.21069203 0.14732178
0000c0 61 ef 00 3e 08 51 1d be 93 06 2e be a8 70 1f be
       0.12591316 -0.15362942 -0.16994695 -0.15570319
0000d0 f9 36 4c bd 57 1f 70 3d 44 db dd 3e b2 41 07 3d
       -0.049857114 0.058623638 0.4333135 0.033021636
0000e0 09 ca 9a bd 68 ac 14 bf ff 8d b4 bd b1 2b ac be
       -0.075580664 -0.5807557 -0.08816146 -0.33627084
0000f0 bf cd 80 bd f6 94 de 3e b8 af f1 be 28 0e 86 3e
       -0.06289243 0.43473023 -0.47204375 0.26182675

lstm.weight_hh_l3 f4 [16, 4]
000000 c0 4c 90 3d c8 cc 07 3f 7d 48 80 3c 46 57 65 bd
       0.07045889 0.53046846 0.015659565 -0.055991434
000010 c6 7e b3 3d df 93 44 3f a2 83 0c 3f 65 46 ec 3d
       0.087644145 0.76788133 0.54888356 0.11536864
000020 27 47 15 bf ed 1b f8 3e e7 9d ca 3e 93 f7 1f bf
       -0.58311695 0.48458806 0.39573595 -0.62487143
000030 6d bf b8 3e 10 d1 9e be f3 9b 29 be 83 b0 42 3e
       0.36083546 -0.31018877 -0.16563396 0.19012646
000040 a8 f4 a4 be 1d 6f 78 be cd 57 bb 3e e2 2d 13 bf
       -0.32217908 -0.24261136 0.36590424 -0.57491887
000050 96 9b e8 be cd 58 b5 3e bd 29 c5 bd 10 47 a7 bb
       -0.45431203 0.35419312 -0.096271016 -0.005104907
000060 46 bf 63 bc 5e 9f aa 3e 22 f0 72 be d4 04 ad be
       -0.013900584 0.33324713 -0.23724416 -0.33792746
000070 19 f6 9c bd 07 b3 b6 3d a2 f3 9d be 4a 2c f7 3e
       -0.07664127 0.089208655 -0.3084994 0.48275977
000080 1b 4d 03 bf f5 32 9d 3c b7 58 f0 bd 46 50 7c be
       -0.5128953 0.019189337 -0.11735671 -0.24639997
000090 ad fb 18 bd b8 88 a6 3d 04 6a 1e 3f 78 1e f5 3d
       -0.03734939 0.08131546 0.61880517 0.11968702
0000a0 06 b5 ea be 4f 47 03 bf fe ac c4 bd 04 ed 20 be
       -0.45841235 -0.51280683 -0.09603308 -0.15715414
0000b0 f6 95 05 be 5a f8 36 be c6 b5 91 be 53 15 49 3c
       -0.13045487 -0.17868176 -0.28458995 0.0122731505
0000c0 a0 9e cd 38 ee 2b 80 be b7 8a 64 3d 5d 66 3d be
       9.804708e-05 -0.25033516 0.05579635 -0.1849608
0000d0 db d5 f6 be a7 58 b7 3d d0 42 01 3e 3d dc a9 be
       -0.48210034 0.08952456 0.12623143 -0.3317584
0000e0 9f 00 9f 3c 00 6d e5 3c ca d3 14 3f 88 61 a3 be
       0.019409476 0.028006077 0.58135664 -0.31910348
0000f0 f2 4d 01 3f d1 70 2e 3e d5 d1 09 bf e3 58 79 3e
       0.5050956 0.17035224 -0.53835803 0.24350314

lstm.bias_ih_l3 f4 [16]
000000 c6 d8 b9 3d 6e f7 06 3d f7 4f 2a 3f 64 b7 61 be
       0.090745494 0.03295081 0.66528267 -0.22042614
000010 fd e7 e6 be da cf 67 be c6 62 c7 3e 3f 4c 7c 3b
       -0.45098868 -0.22637883 0.38942546 0.0038497595
000020 9f ec 4b be b0 9b 8e 3e 3e b4 49 3c 8c b1 8c bd
       -0.19914483 0.27853155 0.0123110395 -0.06869802
000030 03 2f d1 be d9 e9 00 3c ad b0 9c bc 78 1f ba bd
       -0.4085618 0.007868254 -0.019127214 -0.090880334

lstm.bias_hh_l3 f4 [16]
000000 72 bb 12 bf 30 ae a2 3d 75 ea de 3e 32 b6 b1 be
       -0.5731727 0.0794338 0.43538252 -0.34709316
000010 07 d6 65 3e d3 81 18 3f a1 08 03 be 16 3f d2 be
       0.22444926 0.59573096 -0.1279626 -0.41063756
000020 50 33 9d bd 35 c4 2e be 45 e9 44 3e 34 54 78 3d
       -0.07675803 -0.17067035 0.1922961 0.060627177
000030 cf 0c 8b 3e 3c f9 cf 3e 9e ea 24 3f df bf 47 be
       0.2715821 0.40619838 0.644205 -0.19506787

fc.weight f4 [1, 4]
000000 67 be 5f bd d6 3a d6 3e 03 e6 35 3f f5 47 94 3e
       -0.05462494 0.41841763 0.71054095 0.2896115
